lstm_torque_model.pth (torch, 205466 bytes, 9 tensors)

lstm.weight_ih_l0 f4 [256, 2]
00000000: 4ec6 acbf b398 c6be ce68 843b fb96 a7be
00000010: 201a 0f3e 8691 53be 670e 55bf a1a2 eebe
00000020: 52d1 083f a912 183f 3ba6 00c0 d918 41bf
00000030: c52b 133d 30dd ddbe 5cf5 4ebe 3608 5cbf
00000040: 7bbe 3fbe c06e edbe cc2d 35bc 2356 e8be
00000050: 0db3 63bc d397 9fbe b47a 96be 1c2e dfbe
00000060: e31c 33bf b0e2 93bf 0c7c 09bd c62e 98be
00000070: d509 9dbf 4ec6 08bf 1b1e 98bf bcbf 70bf
00000080: 7f7f 843c 0c30 1fbf 81a9 1c3e 79e8 b0be
00000090: aa6d fbbe d43e c4bf 48a2 a63e 08e5 cebe
000000a0: f527 0b3f 944a 3fbd 0f52 c0bf c268 14bf
000000b0: 83a3 40bf 9eb1 3ebb 9647 56bf 8edd a0be
000000c0: 933b 44bf 59e5 81bf e8d7 61bf b4a2 acbf
000000d0: 6823 b9bf 36c1 8abe a961 47bf 6ff5 21bf
000000e0: b031 1cc0 b386 36bf 7e14 adbe bac0 f7be
000000f0: 27bb e2bf 7d2f e4be c81f a0bf c6c4 95bf
00000100: e36b 63be 4df1 55be f82c 46c0 fbcd 90bf
00000110: 6ba9 483e 8498 c3be 2f06 bbbf e8e6 95bf
00000120: 84bc c4bf 0a5b 76bf dcb8 06be fbce aabf
00000130: 19a1 883e 1540 dabe 5d9b 73bf 3e83 32bd
00000140: 9bff 1bbd 529a 13bf 8319 38be 92ef 7abf
00000150: 25df 85bf 265b 0fbf 4414 84bf 40cc 57bf
00000160: 6fbc aabf 9e91 e5be 07ae f4bf 1412 a5be
00000170: ed96 dbbf 978f d3be 8255 5cbf 4875 1dbf
00000180: de59 54bf 3623 3dc0 7f5f 40bf 4adc 82bf
00000190: cf7d 34be 2e3d a7be 26d9 763f 7733 903e
000001a0: a0e9 1f3f 5609 153f cc3b a4be d809 1e3e
000001b0: 1c5a 13c0 fa8e 2ebf d798 8cbf 1844 cabe
000001c0: 02e1 32bf b9ae 10bf 4aae 88be 6342 62bf
000001d0: e9ec 1b3f 35e2 a3bc 5bd9 e13e 135c a03e
000001e0: efae d8be 9f60 8ebc d841 e9bf 75f4 e0bf
000001f0: 71f2 bdbf 2dc5 23bf 0d72 123e 4ace e8be
00000200: e55e 59be 8006 10be f8a0 4f3f c767 073e
00000210: f6ec 92bf dc21 8dbf dcd0 9bbf 64b0 5abb
00000220: 2b83 0bbc e9af 613f 50b8 9ebf 12f9 a1bf
00000230: e3df 353e d565 d43e 0bd2 a43f 51b3 4f3f
00000240: 1c22 403f 8bd3 d43e baab a6be d448 9fbe
00000250: 4b1c 5e3f bf62 063f 95ca 363f 7963 b7be
00000260: 782c 253f 43b8 6f3d ef92 8f3f 9fdb 663e
00000270: 19e7 0dbf 8808 21bc 05e0 9fbe 4bd6 98be
00000280: fb30 603f 1c6d 2c3f 02eb 1a3f 3632 59be
00000290: d119 01bf d5fe 52c0 93d0 9abd 0f74 51bf
000002a0: e76c 543e 5255 65be 9e86 9abf 4388 8b3e
000002b0: 64d4 d9bf 6491 d5be c857 853e 7274 113f
000002c0: c681 06bf 16e7 75bf 9cbb 173f 707e 39bf
000002d0: 3fc0 0e3e 5041 e1be 6f5a a03e 26dc 613f
000002e0: f83b 26c0 44db 823e 873e 843f ab6b 3e3f
000002f0: ccf2 f3bf 4e30 8bbf c2f6 e3be 379a f2bd
00000300: 2f44 01bf 7aab 40bd 21d7 0ac0 9307 ec3e
00000310: c7e6 fc3e eb72 4d3f 1a61 1b3e 94c3 203f
00000320: 56f1 62bf c37b 29c0 860f 18be fd7d 7abf
00000330: e5a1 363f 5089 9bbd 6a77 dcbf cc52 20bf
00000340: e982 3d3f e0bc 95be 22e6 1f3f 2d84 2bbe
00000350: d5bc 86bc 1d80 a63f 73c3 023f cc07 2abf
00000360: 8517 00bf 5bb0 1bbe e67d b3bf d6be f63d
00000370: 3ac1 04c0 015a e5be 261e 553e 90dc ebbd
00000380: b0c2 213e 9cdd 12c0 5152 873e fc9a 8cbf
00000390: f462 2fbd 51a9 b4be b094 efbd 1486 47be
000003a0: c913 59bf b9b6 9dbe 3b58 ab3f f0ca 9a3f
000003b0: 0b0d 9cbf ff3c b13c da13 73bf 6a95 d6bd
000003c0: f1a7 72be 67a5 ddbe dfe1 823f 454e 2dbe
000003d0: 94db c2bd cfde 8c3e 9fcf 97bf ce06 1ebf
000003e0: 9445 3abf 28d5 6ebe adec 55bf 49f3 0ec0
000003f0: 6b4f a6bf 5bfe 62bf 011e 203f 639c 2f3f
-1.3498018 -0.38788375 0.004040814 -0.32732376 0.1397481 -0.20660982 -0.832251 -0.4660845
0.534444 0.59403473 -2.010146 -0.7542854 0.035930414 -0.43332815 -0.20210785 -0.8595003
-0.18725006 -0.46373558 -0.011058282 -0.45378217 -0.0138976695 -0.3117052 -0.2939049 -0.43589866
-0.6996595 -1.1553555 -0.033565566 -0.29723185 -1.2268625 -0.5342759 -1.1884187 -0.94042563
0.016174076 -0.6218269 0.15299036 -0.34552363 -0.49107105 -1.5331674 0.32545686 -0.40409112
0.54357845 -0.046701983 -1.5025042 -0.5797235 -0.752495 -0.0029097567 -0.8370298 -0.31419033
-0.76653403 -1.0148116 -0.8822007 -1.3487153 -1.446393 -0.27100533 -0.7788339 -0.63265127
-2.4405327 -0.71299285 -0.33804697 -0.48389226 -1.7713364 -0.4456748 -1.2509699 -1.1700675
-0.22209124 -0.2089283 -3.0964947 -1.131286 0.19595878 -0.38202298 -1.4611262 -1.1711092
-1.537003 -0.96232665 -0.13156456 -1.3344415 0.26685408 -0.42627016 -0.9515894 -0.043582194
-0.03808556 -0.5765735 -0.17978482 -0.98021805 -1.0458723 -0.55998456 -1.0318685 -0.84296036
-1.3338755 -0.4483766 -1.9115609 -0.32240355 -1.7155434 -0.41320488 -0.86067975 -0.6150708
-0.82949626 -2.955274 -0.75145715 -1.0223477 -0.17626117 -0.32663864 0.9642509 0.28164265
0.6246586 0.5821737 -0.3207687 0.15433443 -2.3023748 -0.68186915 -1.0984143 -0.39505076
-0.69874585 -0.56516606 -0.26695472 -0.8838255 0.6090837 -0.020005325 0.44111142 0.31320247
-0.42320964 -0.017380057 -1.8223219 -1.7574602 -1.4839612 -0.6397274 0.1430132 -0.45469886
-0.21227606 -0.1406498 0.81104994 0.13223182 -1.1478565 -1.1025958 -1.2173114 -0.0033369297
-0.00851516 0.8815904 -1.2399998 -1.2654135 0.17761187 0.41483942 1.28766 0.8113299
0.75052047 0.41567644 -0.32552892 -0.3111025 0.8676192 0.52494425 0.71402866 -0.3581808
0.6452098 0.058525335 1.1216716 0.22544716 -0.5543075 -0.009828694 -0.312256 -0.29850993
0.8757474 0.6735399 0.60514843 -0.2121056 -0.5043002 -3.2968037 -0.075593136 -0.81817716
0.20744668 -0.22395828 -1.2072332 0.27252397 -1.7017941 -0.41712487 0.26043534 0.56818306
-0.5254177 -0.96055734 0.59270644 -0.72458553 0.13940524 -0.43995142 0.31318995 0.88226545
-2.5974102 0.2555791 1.0331582 0.7438304 -1.9058471 -1.0874116 -0.445242 -0.118458204
-0.50494665 -0.047038533 -2.1693804 0.4609953 0.4939482 0.80253476 0.1517376 0.6279843
-0.886495 -2.6481788 -0.14849672 -0.9784849 0.7134078 -0.0759455 -1.7223942 -0.6262634
0.7402788 -0.29245663 0.6246053 -0.1674964 -0.016447464 1.3007847 0.5107948 -0.6641815
-0.5003589 -0.15203993 -1.4022796 0.12048118 -2.0742936 -0.4479523 0.20812282 -0.11516678
0.15796924 -2.294776 0.2642999 -1.0984797 -0.04281898 -0.35285428 -0.11698282 -0.1948474
-0.84795815 -0.3080347 1.3386301 1.2093182 -1.219148 0.02163553 -0.94952166 -0.10477717
-0.23696877 -0.43290254 1.022518 -0.16924389 -0.095145375 0.2751374 -1.1860236 -0.61729133
-0.7276242 -0.233235 -0.83564264 -2.233599 -1.2992986 -0.88669366 0.6254578 0.68598

lstm.weight_hh_l0 f4 [256, 64]
00000000: c044 513e d961 653f 0620 313f 9858 ef3e
00000010: 4ace 97be 0fea f23e 93c5 fbbf 3432 69bf
00000020: 0c0b b73f a46a 1ebe b33f 0ec0 7495 87be
00000030: 460f 893d 8401 8b3f 5d5f 103f 5d08 f2bb
00000040: 78ef 5fbf f292 91bf 7b1a 303f f3ea 163f
00000050: 9eb2 d83e 69b9 153f 1756 97bf 1ba3 10c0
00000060: b863 27bf dd64 7e3f d051 103f 2731 bb3f
00000070: cfe3 d53f 16d7 9fbe f333 3140 0726 383e
00000080: 4c2b 0140 2c2f 193f c2b6 a6bf c6eb 203c
00000090: 7ca2 353f 6c5d 863f bc2c d63f f604 04bf
000000a0: c966 723f b949 ab3d a599 9dbf f685 0fbf
000000b0: 3201 803f 9245 243f e9f9 c3bf 7ad3 303f
000000c0: 943d bc3e ceca 6abf 91d4 133f 5b28 473e
000000d0: 8746 643e e461 1a40 be18 0d3d 1ee5 703f
000000e0: a103 e33e f5dc 33bf f368 61be 55c6 c6bd
000000f0: b544 85be 1391 83bd f2dd 7f3e e807 0bbe
00000100: 1013 15bf c613 0cbf 2f1f f2be 382d 09bf
00000110: f59c 3f3f f19b 863f 9679 3c3e 1e54 543e
00000120: b917 eb3e 7cce 5d3f dd71 e5bf e621 1e3d
00000130: 75f5 0e3e 0e63 7a3f 0d08 0b3e cccb 52bf
00000140: d310 a7bf 10f8 ac3f dbbb 373e cad4 a63f
00000150: a3ff d0bf a786 983f a277 403f e016 833e
00000160: f57c 9abf bfba d5be acdb 14bf 4af0 29bf
00000170: 0617 933f eda5 5ebf 43a8 2bbf 2b21 1a3e
00000180: ace0 c3be c487 88be 666b 80bf 98fe 9bbf
00000190: bc71 3e3f 451b c2bf 1d2b 78bf 76c8 d3bf
000001a0: 86ff 00bf 510b 8cbf 0748 51bf b3cc a63e
000001b0: 06bb 6fbf d8a5 50bf 2a7c 2e3f 8cff fbbe
000001c0: 4e5a 243f 8256 d13d b44f a53f 6c57 093e
000001d0: 95b6 74bf f987 15be 9010 38bf c601 9fbf
000001e0: 1f9f 993c c53d a9bf 27ea 91bf b2b1 2540
000001f0: 9f5c b23f bb22 893f 25e2 a1bf 7c02 eebe
00000200: 69ff 093f c16a cebc d062 383f d8df 8ebf
00000210: f6b2 3f3f e670 8e3e 1df8 373e 7d69 da3e
00000220: ceae 403d 055e 833e 51c1 9e3f a813 193c
00000230: c475 173f 4363 9a3e 29f5 f13e aeb3 483e
00000240: 113c 85bf 31e5 63bd dca6 e33b f16c 0fbd
00000250: 0b3b 4f3f 05fe 8e3f a2d1 a93e 851b 57bf
00000260: d8bc 8bbe ec67 4abd df2a 42be c7fa 8dbf
00000270: 0741 37c0 093c 4abd 43a5 a83f 2d46 9dbf
00000280: 6209 cf3d b55e 12bf 2c95 8f3e 4617 dfbe
00000290: 2af0 ffbe b59e 3d3f dc1a ab3f 494d bebe
000002a0: 11ef b2bf d63d 96bf ee24 113f 97a5 2ebf
000002b0: 63cf 96bf b4a8 25c0 068e ddbf 0a22 b13c
000002c0: 0180 2ebf 38ef 65bf 9f24 66be 284c 103f
000002d0: dca0 15be 0611 963f d26c a6bf 2530 cb3f
000002e0: 3ac6 e03e aadf 343f 4071 333e 9a1f fbbf
000002f0: 75dd 9bbf 69c3 ad3c 99ef 13bf caa8 b2bf
00000300: ac8b c4bf 50c8 04bf fbdb 4abe 1bad 183e
00000310: f4a7 173f 333f 78bd ea6e 38c0 5e40 efbe
00000320: dc02 2fbc 698a 0240 e02d 65be b96b a4bf
00000330: 8ffe 653e 5dd8 093f c468 543f aa39 b3be
00000340: 9400 313f 1139 763f b7fb 2cbf 1885 8a3d
00000350: d038 02bf fbc7 15bd 2dd3 1f3e 4cc5 a1bf
00000360: 398d a1bf c77e 823f ad1d ecbd 8628 06c0
00000370: 9f5f ebbf 942c 86be 17a1 45bf df2e a9bf
00000380: 36aa 2240 2fbf f2bf c557 9bbf cfe5 5ebd
00000390: 6b3a 703f 2abd 3fbd 74c5 a4be be07 65bf
000003a0: 3776 5abf 610a 53bd 6626 0f3f 6593 f8be
000003b0: f512 9abf 674c 8e3e ba01 78bf 3dce 46bf
000003c0: 4b17 29be 48b6 fe3d 18cb a4bf 2b15 2f40
000003d0: b2c2 b2bf 9a64 823f 5a49 45bc 133b bfbd
000003e0: bf67 713f 5c79 473e 6e1f 36bf c76e 2cbf
000003f0: c5cb ddbe 32d9 96bf 9dca 3cbe 6ec5 55c0
0.20436382 0.8960243 0.6918949 0.4674728 -0.29649574 0.47444198 -1.966967 -0.9109223
1.4300246 -0.15470368 -2.222638 -0.2648121 0.06692366 1.0859838 0.5639551 -0.007386251
-0.87474775 -1.1372969 0.68790406 0.58952254 0.42323774 0.5848604 -1.1823148 -2.2599552
-0.65386534 0.99372655 0.56374836 1.4624375 1.6710147 -0.31218785 2.7687957 0.17983256
2.0182676 0.59837604 -1.3024523 0.009821838 0.70951056 1.049726 1.6732402 -0.5157007
0.9468809 0.08363671 -1.2312514 -0.56063783 1.0000365 0.64168656 -1.5310642 0.6907269
0.3676573 -0.91715705 0.57746226 0.19448988 0.22292529 2.4122248 0.034447424 0.94099605
0.44338706 -0.7025903 -0.22012691 -0.097057976 -0.26028982 -0.06424155 0.24987009 -0.13577235
-0.5823221 -0.5471767 -0.47289416 -0.53584623 0.7484887 1.051634 0.18405756 0.20735213
0.45916536 0.86643195 -1.7925373 0.038606547 0.13960822 0.97807395 0.1357729 -0.8234222
-1.3052009 1.3513203 0.17942755 1.3033688 -1.6328014 1.1916093 0.75182545 0.2560339
-1.2069384 -0.41744038 -0.5814769 -0.66382277 1.1491401 -0.8697193 -0.6705362 0.15051715
-0.3825735 -0.2666608 -1.0032775 -1.2187071 0.74392295 -1.5164572 -0.96940786 -1.6545551
-0.503899 -1.0940953 -0.8175053 0.32578048 -0.9364475 -0.8150306 0.6815821 -0.49218404
0.64200294 0.10221578 1.2914948 0.13412255 -0.955911 -0.1460265 -0.7190027 -1.2422416
0.018752633 -1.3221976 -1.1399583 2.5889707 1.3934516 1.0713724 -1.2647139 -0.4648627
0.5390535 -0.025197389 0.72025776 -1.1162062 0.7488245 0.2782051 0.17965741 0.42658606
0.047041707 0.2565767 1.2402745 0.009343065 0.5916407 0.30153856 0.47257355 0.19599792
-1.0408956 -0.055638496 0.0069473814 -0.035016004 0.8094947 1.1171271 0.3316775 -0.84026366
-0.27292514 -0.049415514 -0.18961667 -1.1092156 -2.863344 -0.04937366 1.3175434 -1.2287041
0.101092115 -0.5717576 0.28043497 -0.43572444 -0.49987918 0.7407029 1.3367572 -0.3716834
-1.3979207 -1.1737621 0.56696975 -0.6822142 -1.1782039 -2.5884218 -1.7308967 0.021622676
-0.6816407 -0.89818144 -0.22474907 0.56366205 -0.14612144 1.1723945 -1.3001959 1.5874068
0.43901235 0.70653784 0.1752367 -1.9619019 -1.2176958 0.021211343 -0.5778747 -1.395776
-1.5355124 -0.5186815 -0.19810478 0.14909784 0.5924065 -0.060607146 -2.8817697 -0.46728796
-0.010681834 2.039698 -0.22380781 -1.2845374 0.22460388 0.5384577 0.8297236 -0.35004932
0.6914151 0.96180826 -0.67571586 0.06763667 -0.5086794 -0.03656767 0.15607901 -1.2638335
-1.2621223 1.0194939 -0.11529098 -2.0962234 -1.8388556 -0.26205885 -0.7719893 -1.3217429
2.5416389 -1.8964595 -1.213616 -0.05441838 0.9383914 -0.04681126 -0.32181895 -0.8946494
-0.8533663 -0.05152357 0.55917966 -0.48549953 -1.2037035 0.27792665 -0.96877635 -0.77658445
-0.16512792 0.12437111 -1.2874479 2.735667 -1.3965666 1.0186951 -0.012041414 -0.093374394
0.9429893 0.19479889 -0.7114171 -0.6735653 -0.43319526 -1.1785033 -0.18436666 -3.3401752

lstm.bias_ih_l0 f4 [256]
00000000: 3073 f8be 64d0 ecbe e5da aebd f5e7 0fbf
00000010: e50b aa3e cf55 15bf b27e 7abe 860d 29bf
00000020: 94b1 13bf 9026 18be 0885 3bbf 8c49 afbe
00000030: 2cb2 48bf 434e 00bf c8de 0dbf ead9 a8bf
00000040: 6590 6ebf f186 b1be bc42 12be 3b6e b7be
00000050: d20f 0cbe 5cdd d9be d7dd 02be fade babe
00000060: b828 0fbf 65d9 d1be d378 4abe 1e90 04bf
00000070: 7e7b e6be 40ca 11bf 0350 a0bd d971 97be
00000080: 4c90 05bf 2967 60bf b52e f5be 36b1 3cbf
00000090: 798c fbbe a98f 29bf b640 68bf 2e1e 5cbe
000000a0: 4dac e4be 274b 5dbf 9d43 6abf d610 17bf
000000b0: cdd0 2abf 715c 07bf e092 983d 8a08 ddbe
000000c0: 4ebe 0dbf 4375 88be 8940 7cbe 7071 ee3e
000000d0: 8fde cf3e 6703 31bf 46ce aebe 41b7 babe
000000e0: 8ab7 26bf 7029 07bf 9ac1 89be 5819 a33d
000000f0: afd4 acbe ce9e bf3e e21e 04bf a9a0 28bf
00000100: 426b 89bd 7466 6e3e 9e3a 20bf 5489 45bd
00000110: 7742 91bc 37f9 86bf c30e cf3d 6e56 913f
00000120: ca69 a93e 6193 a8bd ddb3 8a3f 9d77 01be
00000130: efb8 b03e 48af 0e3f a666 a83e 8a30 e9bd
00000140: 2d7c 9d3e b572 3abd dbda e03d e358 3bbf
00000150: 66f0 4cbe 48e4 d03e bdc5 11bf 6c46 c33e
00000160: eef6 89be f5cd 9b3e b1d4 8fbf 4543 d03e
00000170: 6ac6 9b3e 1d0f 4e3f f4fe 1cbf a3b4 243d
00000180: 3b9e 513e 5b5e 353e 3b4c 7a3e 4c95 a13f
00000190: bfdb 3dbf b2e3 8abd 001b e2be fd92 7abe
000001a0: 635c 473e 1454 573f 191b 653f 845d 36bf
000001b0: 8007 f53d f223 6abe 2b6b 8abe 9394 11bf
000001c0: ea3f 723d 1586 0a3e d9bd 35bf e230 39bf
000001d0: 0d53 cebd 6933 433f 0653 433e 7c03 293f
000001e0: ca37 edbe 7bb6 383c 71e1 5f3e c743 63bf
000001f0: faf7 ad3e 51f2 9fbf b3df 55be 9c05 dc3e
00000200: 91dd d23d ae7c c7be 6418 2c3e 6b2d b5bd
00000210: 9804 31bf 0add 83be 256a 96be 2614 ae3e
00000220: 3a15 b9bc f32a dc3c 5677 90bd 2c26 9ebe
00000230: 6504 3c3e 863a 1f3e 8ec9 49be 4391 55be
00000240: ed6d 8c3e 3539 823e 931a dabe 7f40 65be
00000250: cfbb 8f3e 3902 25bd 5b75 b4bd 8712 5a3e
00000260: 2042 e83c 977c 063e f409 82be 0943 ae3e
00000270: 6527 e73d 6f65 27be d70f 11bc e43b cd3e
00000280: 7e6f 82be c9ee 2a3e 1f1a dfbd 395d 2ebe
00000290: c792 95bd 83c3 63be 23b1 07bf 8f24 9d3e
000002a0: 8d36 11be f020 34be e0dc b03d c525 c93d
000002b0: a25f a1bd 374c bbbd c577 3b3d 4e14 a2be
000002c0: 8cd9 933e 7db4 cf3d 107b d43d 005b e8be
000002d0: 4596 cd3e 1ae1 58be 702b 4dbd 40e9 06be
000002e0: 253f 97be 9a32 e93e 2085 7e3e 4ba6 12be
000002f0: cd54 abbd 10da fdbe dbfe 54be 8777 343e
00000300: 62b8 23bf bee0 c8be ed44 173e 0c16 40bf
00000310: d230 883f e6fb 17bf 4f90 7b3d 884d 62bc
00000320: 9a32 a93c 1fa1 83be e238 cebe c77e bcbe
00000330: 03f4 72bf b172 e0be 6288 02bf 9258 96bf
00000340: 52b9 c9be 3e70 aebe 402a a63e cdd1 17be
00000350: ab86 91be 7715 d4be 5bab c6be 214e bfbe
00000360: 1de7 1bbf 7ea5 4e3d 75c2 cebe f774 0dbf
00000370: 1223 9ebd 1b22 413d 1a2b 55be 25db 00bf
00000380: ff3a 91be c958 08bf 1e75 efbe 2f50 213e
00000390: 517e 1dbf 8320 2fbf 0beb 59bf a672 87be
000003a0: aa9f 02be 5095 3fbf 7572 04bf 9e87 09bf
000003b0: 5bfc 3fbf d324 87be 32df 99be 6cf5 94be
000003c0: 4ae0 cdbe fe6d dfbe e3af bbbe ab1d 723f
000003d0: b04f 0c3f 86ca ddbe 06ed 933e 9fe5 91be
000003e0: 1eaa 8cbe b03e 2cbf c9fc 8abe 3589 9f3e
000003f0: 2e65 babe 1739 bf3e c153 cbbe 5293 94be
-0.4852538 -0.4625274 -0.085378446 -0.56213313 0.332122 -0.5833406 -0.24462393 -0.6603626
-0.5769284 -0.1485846 -0.73249865 -0.342358 -0.7839687 -0.5011942 -0.5541806 -1.3191502
-0.9318908 -0.34673265 -0.1428327 -0.35826287 -0.1367791 -0.42551696 -0.12779938 -0.36498243
-0.55921507 -0.4098617 -0.19772653 -0.51782405 -0.45016092 -0.56949234 -0.07827761 -0.29579046
-0.52173305 -0.8765741 -0.47887197 -0.737079 -0.4913061 -0.66234833 -0.9072374 -0.21495888
-0.44662705 -0.864428 -0.9150942 -0.59010065 -0.66724855 -0.5287543 0.07449889 -0.43170577
-0.55368507 -0.26651964 -0.24633993 0.4657092 0.40599486 -0.69145817 -0.3414175 -0.36467937
-0.6512381 -0.52797604 -0.2690552 0.07963818 -0.33756015 0.37425846 -0.51609623 -0.6587015
-0.06709911 0.2328127 -0.6258944 -0.04822667 -0.017731888 -1.0544804 0.101102374 1.1354501
0.33088523 -0.08231235 1.083614 -0.12643285 0.34516093 0.5573621 0.32890815 -0.11386211
0.307588 -0.04551955 0.10979243 -0.73182505 -0.2001358 0.40799165 -0.5694235 0.38139665
-0.26946205 0.3043057 -1.1236783 0.40676323 0.30424815 0.8049181 -0.6132653 0.04021133
0.20470516 0.17711775 0.24443142 1.2623687 -0.7416343 -0.06781711 -0.44161224 -0.24470134
0.19468836 0.8411267 0.8949447 -0.71236444 0.11964321 -0.22865275 -0.27034888 -0.5686733
0.059142984 0.1352771 -0.7099281 -0.72340214 -0.100744344 0.7625032 0.1907464 0.6602094
-0.46331626 0.0112739755 0.21863343 -0.88775295 0.33978254 -1.2495824 -0.20886116 0.4297303
0.10296167 -0.3896231 0.1680618 -0.088465534 -0.69147635 -0.25754577 -0.29377857 0.33999747
-0.02259313 0.026875949 -0.070540115 -0.30888498 0.18361051 0.15549669 -0.19705793 -0.20856194
0.27427617 0.2543427 -0.425984 -0.22387885 0.28072974 -0.040285323 -0.08811446 0.2129613
0.028351843 0.13133465 -0.2539822 0.3403552 0.11286811 -0.16347288 -0.008853874 0.40084755
-0.25475687 0.16692652 -0.10893654 -0.17027749 -0.07303386 -0.2224255 -0.53004664 0.30691954
-0.14180966 -0.1759069 0.086358786 0.09821657 -0.07879569 -0.09145396 0.045768518 -0.31656116
0.28876913 0.10141847 0.10375035 -0.45381927 0.4015371 -0.2117962 -0.050090253 -0.13174915
-0.29540363 0.45546418 0.2485547 -0.14321248 -0.08365784 -0.4958043 -0.20800345 0.17623721
-0.6395322 -0.39233965 0.14772387 -0.7503364 1.0639899 -0.5936874 0.06141692 -0.01381243
0.020654012 -0.25708863 -0.40277773 -0.36815473 -0.9490358 -0.43837503 -0.50989354 -1.174578
-0.393992 -0.3407001 0.3245411 -0.14826126 -0.28423056 -0.41422626 -0.3880261 -0.37364295
-0.60899526 0.050450794 -0.40382734 -0.552566 -0.07721533 0.047151666 -0.20817223 -0.5033439
-0.28365323 -0.53260475 -0.4676904 0.15753244 -0.6152087 -0.68408984 -0.8512427 -0.26454657
-0.1275622 -0.7483721 -0.5173715 -0.5372256 -0.7499444 -0.26395282 -0.30053097 -0.29093492
-0.4021018 -0.43638605 -0.36657628 0.9457652 0.54809093 -0.43318576 0.28891772 -0.284955
-0.2747354 -0.67283154 -0.27145985 0.31159368 -0.3640532 0.37348244 -0.39712337 -0.29018646

lstm.bias_hh_l0 f4 [256]
00000000: 76cb f5be baf9 19bf c5cb d5bd 8378 16bf
00000010: 7633 f43e 2b90 1ebf f07e cbbd 21ed 62bf
00000020: 53ad f4be 2dfe 17ba e443 0abf 3c03 e3be
00000030: 340a 69bf c05e 0cbf e268 f3be 5f21 96bf
00000040: 75c2 6fbf 6206 06bf 9216 94be 0017 cfbe
00000050: b44d c0be f7f0 04bf 4d9b 37be 9bf6 11bf
00000060: 18fc 1dbf 1b03 aebe a0cf ccbe 12ae f7be
00000070: 826d f2be 8e97 1cbf f7c9 93be c9d0 d0be
00000080: ddca 1cbf 4be3 3fbf 405c d9be 88b7 69bf
00000090: c4a5 fcbe e12f 0cbf 0e99 3cbf 8a70 61be
000000a0: 9900 55be ce4b 33bf ff52 6fbf 8c46 e8be
000000b0: 463e 28bf 0903 cdbe fe08 e1ba dbc8 9dbe
000000c0: 8497 12bf 630e abbe a24a 58be e241 2d3f
000000d0: ba17 003f 4121 23bf 1709 ddbe 7094 dfbe
000000e0: 5985 21bf 39c4 0abf e44a 41be 48f1 3d3d
000000f0: b376 fabe 13f1 be3e 92b0 06bf d368 05bf
00000100: de30 77be 455e 273e bf05 35bf f095 debb
00000110: 0aca e93d df5b 68bf f185 433e 7eaf 8b3f
00000120: d2ef a73e cdc8 043d 050a 823f 0d7b c2bd
00000130: c4cd cf3e ea29 113f b6d7 df3e 964f cc3c
00000140: e621 a23e f43a 943b 5f3d a0bc c8d6 23bf
00000150: 1e76 83be 8616 a53e aa2c 3abf a636 e83e
00000160: f858 74be 6b5b 903e 160c 87bf 8299 d83e
00000170: fc42 e43e c974 6d3f 4695 26bf d19b df3d
00000180: 1e2a 573e d801 3b3e ea55 b33e e755 963f
00000190: 1f9f 30bf f65a 11be 41e4 bebe 475e 62be
000001a0: c134 f43d 0385 2e3f f151 813f 4748 17bf
000001b0: 68a1 cc3d c86c 0fbe cfe2 b5be e28d 29bf
000001c0: 1526 c83d 8805 073e 08fe 26bf ed42 1cbf
000001d0: da71 79be 1166 0f3f fb48 743e ce04 203f
000001e0: 41a1 edbe 1b9d 34bd c20f be3d 3be9 6dbf
000001f0: 5d0d 9a3e 1dcc 9fbf 1d02 e0be 9851 c53e
00000200: 1f05 a43e 0ba7 d2be 0d95 603e 82bd 443d
00000210: 2551 31bf f186 a1be ee16 96be aae1 313e
00000220: 94e4 0dbe c074 0d3e dbab 69bd 8a4d b7be
00000230: d731 943e 4f29 f73d caa2 8ebe c007 51bd
00000240: fd68 643e 9125 d63d 4f5a fcbe 7ebb 34be
00000250: e497 683e 5371 993d ab21 8bbd 6ef3 a23d
00000260: 5bda a03c 9d0d a8bb 9ea5 98be c247 883e
00000270: 3961 093e aa81 44be e367 67be 4b83 df3e
00000280: a53c 1dbe ee96 4f3d e5a6 6ebe 23f9 4dbe
00000290: 689a f3bd ae1a 22bd 56c5 e6be 3be7 9e3e
000002a0: bf9d a2bd b8bf 5a3d c700 033d e2c2 bb3d
000002b0: 8970 7ebe 681f d3bd a685 f33d 246b f5be
000002c0: 47cb 8b3e f65a 77bc 3bb1 253e f788 06bf
000002d0: 1659 a03e bcb0 97be 8038 5bbd d86b f7bd
000002e0: 0ea6 15be 0c4b bc3e 114e ad3d 0390 85be
000002f0: e86c 78bd 3c62 f9be 517b 25be 27ff 7e3e
00000300: 2ce6 fbbe e182 26be 0e80 0c3e dc95 42bf
00000310: 27de 823f 6a00 d1be 2f09 0c3e afb7 86bc
00000320: 3cab 9abd c672 c1be b3d1 7ebe 714d d8be
00000330: f814 6ebf 738d 04bf b9a4 b2be 286e 93bf
00000340: 91b5 a0be ce38 57be 2174 4f3e a3c9 2abe
00000350: 4cf8 84bd 5854 f1be fc00 b5be 97d6 c1be
00000360: 7e64 03bf 7942 6ebd cc91 71be 9332 d5be
00000370: 1d8a f8bc 17d1 1abc 4a2f 18be ccce cdbe
00000380: a947 a0be f747 dcbe 02da b2be 0bd2 553d
00000390: a091 fabe 6348 0cbf 5e9f 65bf b132 9abe
000003a0: 9ef6 d03b 8c24 47bf 7105 cbbe a33f 30bf
000003b0: e63e 2dbf 0dfe ecbe dffe 0cbe 85f3 85be
000003c0: b1e6 70be 5fd5 a1be 5324 65be e11c 473f
000003d0: 7133 213f 18e6 d9be c702 443e e724 32be
000003e0: d8c7 b1be 46c2 3dbf 9438 87be c653 733e
000003f0: c599 b0be 5572 c83e a1c1 0cbf 349e 91be
-0.4800679 -0.6014668 -0.104392566 -0.58777636 0.47695512 -0.6193873 -0.09936321 -0.8864308
-0.47788486 -0.0005798068 -0.5400984 -0.44338405 -0.91031194 -0.5483208 -0.47540957 -1.1728934
-0.9365609 -0.5235349 -0.2892347 -0.40447235 -0.37559283 -0.51930183 -0.17930336 -0.57016915
-0.6171279 -0.33986744 -0.40002155 -0.48374993 -0.47349173 -0.61168754 -0.28865024 -0.4078429
-0.61247045 -0.74956197 -0.42453194 -0.9129567 -0.4934522 -0.5476056 -0.7367104 -0.22015586
-0.20801009 -0.70037544 -0.93486017 -0.45366323 -0.6572002 -0.40041378 -0.0017168818 -0.30817303
-0.57262444 -0.33409414 -0.2112222 0.67678654 0.50036204 -0.63722616 -0.43170998 -0.43667936
-0.630941 -0.5420566 -0.18876225 0.04637268 -0.48918685 0.372933 -0.52613175 -0.52113074
-0.24139735 0.16344555 -0.7071189 -0.0067927763 0.11415489 -0.90765184 0.19094063 1.0912931
0.32800156 0.03241806 1.0159308 -0.09496126 0.40586674 0.5670458 0.43719262 0.024940293
0.31666487 0.0045236293 -0.019560514 -0.63999605 -0.25676054 0.32243747 -0.727244 0.45354193
-0.23862064 0.28194746 -1.0550563 0.42304617 0.44582355 0.92756325 -0.65071523 0.109183915
0.2101216 0.18262422 0.35026485 1.1744965 -0.689928 -0.14194855 -0.3728352 -0.22106276
0.119241245 0.6817171 1.0103132 -0.5909466 0.09991723 -0.1400634 -0.35524604 -0.6623212
0.097728886 0.13185704 -0.6523137 -0.6103962 -0.24359837 0.56015116 0.23855965 0.6250733
-0.4641209 -0.04409514 0.09280349 -0.92934006 0.3008832 -1.2484165 -0.43751612 0.38538814
0.32035157 -0.4114307 0.21931858 0.04803229 -0.6926444 -0.31548265 -0.2931437 0.1737124
-0.13856727 0.13814068 -0.05704866 -0.35801345 0.28944275 0.12068426 -0.27858573 -0.05103278
0.22305675 0.10456384 -0.4928765 -0.17649648 0.22714192 0.07492318 -0.06793531 0.07956587
0.01963537 -0.005128576 -0.29813856 0.26617247 0.13415994 -0.19190088 -0.22598223 0.43654856
-0.15355165 0.050681047 -0.23305853 -0.2011457 -0.11894685 -0.039576225 -0.4507243 0.3103579
-0.07940244 0.053405493 0.031983163 0.0916803 -0.24847616 -0.10308725 0.11890726 -0.47933304
0.27303526 -0.01509737 0.1618089 -0.5255274 0.31317967 -0.29627025 -0.05352068 -0.120811164
-0.14614126 0.36776006 0.084621556 -0.26086435 -0.060650736 -0.4870776 -0.16160323 0.2490202
-0.49199045 -0.16260864 0.13720724 -0.7600992 1.0224046 -0.40820628 0.13675378 -0.016445009
-0.075521916 -0.37782878 -0.24884681 -0.42246583 -0.93000746 -0.51778334 -0.34891298 -1.1517992
-0.31388524 -0.21017763 0.20259143 -0.16678481 -0.06492671 -0.47134662 -0.35352314 -0.37859032
-0.51325214 -0.058168862 -0.23590773 -0.41640148 -0.030339295 -0.009449265 -0.1486179 -0.40196836
-0.31304672 -0.43023655 -0.34931952 0.052202266 -0.48939228 -0.54797953 -0.896963 -0.301168
0.0063770553 -0.7779014 -0.3965259 -0.688471 -0.676741 -0.46287575 -0.137691 -0.26162353
-0.23525502 -0.31608102 -0.22377138 0.7777844 0.6296912 -0.4255836 0.19141684 -0.1739689
-0.3472278 -0.7412456 -0.26410353 0.23762426 -0.34492317 0.39149728 -0.54982954 -0.28441012

lstm.weight_ih_l1 f4 [256, 64]
00000000: c278 0b3f 9558 33c0 38f9 1b40 3b02 3dbc
00000010: f4f0 2f3f 50be a53e 3d12 e6bc 5e6d de3d
00000020: 6431 35c0 4795 99be 1ae8 663f c2d9 763f
00000030: 804e 313f 41b9 6fbf e74b c63e 15d4 163e
00000040: 3245 333f 5267 aa3f b6f8 843e f92b 6ec0
00000050: 8975 ad3f e691 24bf de10 113f 52e9 3440
00000060: a980 033d cc3f 34bf 6d58 e33e 1c33 fa3e
00000070: 40d6 b83f 88da 863f 6bd7 8c3f 6097 a0bf
00000080: 944b 12be 4b6a 1cbf ba0f a83f e91a 023f
00000090: b2a4 b7be b666 933e 9e4e af3e 2437 e23e
000000a0: 260e 19c0 46ff 93bd 4be6 d13f 0e05 8d3f
000000b0: 0a5c 38bf e6f3 72bf 754c a4bf 0ec1 5d3e
000000c0: e71b cd3c 4fc7 4f3f 8ac4 ffbd 23fc f03e
000000d0: 41a2 0340 0388 ac3f 35b0 d6be 0780 1fc0
000000e0: 3bf6 0fc0 9829 87c0 f05e 19bf d52d 843e
000000f0: 7809 b03d c387 1cbf 842a 54bf b181 20c0
00000100: b8e8 31bc 5c4a c1bd 245c 463f 6060 03bf
00000110: 83c2 913e 64b4 703e 889e 03bf 87e6 a1bf
00000120: f3d9 253f 7aaf 9a3f 376c c5be 832f afbe
00000130: f5e0 0fbf b19d 32bf 1fc2 b73e b08d 023e
00000140: 9679 eebe 9d14 d63f 1bd5 cebd 5d8f fbbc
00000150: 5068 953f ae80 9b3e d05c 95be a08b 1f3f
00000160: be2c 723f fdd7 ab3e c7e2 013f 7914 06bd
00000170: 27df 00be 8817 953f 655f b3bd 5386 783f
00000180: 5bca a43e 236e 04bf f6d5 ccbf 8317 563f
00000190: 7d51 a5be 8f83 aabf ee1e bbbe 51f7 1fc0
000001a0: ad25 5fbe 40e6 af3f cdc6 94bd ffea 143f
000001b0: cdbc 4bbe 65f2 a93f 6f25 15bf a9ec 41bf
000001c0: c17b 6fbf 243f 033f 76b5 783f cfb6 70bf
000001d0: e7ba 5cbe 321a 28be 08ed 97bf 0035 b3bf
000001e0: aa39 a43e f3c8 71bf 44c2 89bf 7d1d 40bf
000001f0: 32c9 b43f 55e7 c23e e627 b83f da5f 4abe
00000200: 7d3d c0be 8e36 35bd 48f9 d6be e751 afbe
00000210: 382b de3e f4d1 3d3f a415 a03e e50f 9dbf
00000220: f61e f73f e8d7 73bc cb5e 2ebf 170c c03e
00000230: 7462 4abf f51a 09bf 5e94 8f3e ff0c 26be
00000240: 1298 29be f6af e53f 4baa 663e dcd2 c2bf
00000250: 0904 0240 975f 863e 8ce8 773e 50b3 b0be
00000260: 37d2 0c40 ab67 233e b809 c63e 1d29 28bf
00000270: 55b3 443f cf08 f33f c9bd e8be b8d3 343f
00000280: 0426 663d 2a86 03bf 6aeb de3e 76fb 9a3f
00000290: acbe 133e 8281 363f 82c5 c33f 9a48 b9bf
000002a0: 0326 46bc d278 893f 9c13 843d 3d86 9abe
000002b0: 00fe 8c3e 1420 b83f fa3a ec3e 6a22 f03e
000002c0: 0df2 9ebf bc83 6d3f 5d33 a63f 4e3a a2bf
000002d0: ec00 853f a814 ce3e e6b6 17bd 3ed9 17bf
000002e0: 8f5c 59bf 36e7 7bbf 9857 1cbf a8c4 f23e
000002f0: 98be a43e fc17 75be 2746 ab3e 319f fabe
00000300: 1db5 3fbe b7a1 59bf 7594 843f d4f6 5a40
00000310: 18f2 c1bf d6a6 ba3e 1331 1cbd f01f 12bf
00000320: 9e64 9f3f 6598 0c3f eea9 753f 835b 61bf
00000330: e0f1 103e 74d9 53bf e574 b23f 6ace 7dbc
00000340: 6931 443f d369 1ebf 3020 6fbe d0af 8a3d
00000350: b546 d33d b1bb 0bc0 017b 3d3e 4a63 ad3f
00000360: 33f3 cc3d 7c06 0bbe c957 fb3e bc68 04bf
00000370: 7f76 53bf 568f 943f dbae 3dbf 4a9a 1cc0
00000380: c7ea 433f cc22 35c0 3f8d c73f 1f2e a23e
00000390: c68c 943f 91e2 6b3f 79e5 28bf 0dfa bebe
000003a0: a9a5 3d40 1753 41be e801 653f 38f2 5cbe
000003b0: f643 1f40 09a5 103f b233 783f 4bc2 8c3d
000003c0: 112d 47bf dbee 4b3e f16a 7b3f c296 38bd
000003d0: c4c4 95bf d46a e23e c438 e4bf 4be9 e73e
000003e0: 9059 0b40 0c76 9c3e 98e3 afbf d2af 0abf
000003f0: ee78 80bf fbd1 bf3d f9ac d8be 5d7e a83e
0.54481137 -2.8022816 2.437086 -0.011536176 0.6872704 0.3237176 -0.028084869 0.10860704
-2.8311396 -0.29996702 0.9019791 0.9642602 0.69260406 -0.9364205 0.38729784 0.1472934
0.7002746 1.3312781 0.25971 -3.7214339 1.3551494 -0.64285123 0.5666636 2.8267407
0.03210512 -0.70409846 0.444034 0.48867118 1.4440384 1.053544 1.100324 -1.2546196
-0.14286643 -0.6109969 1.3129799 0.5082231 -0.3586784 0.287893 0.34239668 0.44182694
-2.3914886 -0.07226424 1.6398405 1.1017168 -0.7201544 -0.9490341 -1.2835833 0.21655676
0.025037719 0.81163496 -0.12488659 0.47067365 2.0567782 1.3479007 -0.4193131 -2.4921892
-2.2494037 -4.2238274 -0.5991049 0.25816217 0.08595556 -0.61144656 -0.82877374 -2.5079157
-0.010858707 -0.09438011 0.77484345 -0.5131893 0.28468713 0.23506314 -0.51413774 -1.2648476
0.6478569 1.2084801 -0.38559124 -0.34215936 -0.5620263 -0.6977187 0.3589029 0.12749362
-0.46577138 1.6725041 -0.100992404 -0.03070801 1.1672459 0.30371612 -0.29172373 0.62322426
0.9459952 0.33563223 0.5073666 -0.032734368 -0.12585126 1.1647806 -0.087584294 0.9707996
0.32185635 -0.51730555 -1.6002796 0.83629626 -0.32288733 -1.3321398 -0.36547035 -2.49947
-0.21791716 1.3742142 -0.07264481 0.58171076 -0.1989624 1.3277098 -0.58260244 -0.7575174
-0.9354821 0.5126822 0.9715189 -0.94028944 -0.21555673 -0.16416243 -1.1869211 -1.4000549
0.32075244 -0.9444725 -1.076241 -0.75044996 1.41239 0.38067117 1.4387176 -0.19763127
-0.37546912 -0.04424148 -0.41987062 -0.34242174 0.43392348 0.7414849 0.3126651 -1.2270476
1.9306324 -0.014883019 -0.6811339 0.37509224 -0.7905648 -0.5355676 0.28042883 -0.16215895
-0.16561916 1.7944324 0.22525899 -1.5220599 2.0314963 0.26244804 0.24209803 -0.34511805
2.2003305 0.15957515 0.3867929 -0.65687734 0.7683614 1.8987063 -0.45457295 0.7063556
0.0561886 -0.51376593 0.43538982 1.210799 0.14428204 0.71291363 1.529465 -1.4475281
-0.012094024 1.0739996 0.06449053 -0.3018054 0.27537537 1.438479 0.46138746 0.46901256
-1.2417618 0.92779136 1.2984425 -1.2674043 1.0390906 0.40250134 -0.03703966 -0.5931586
-0.8490686 -0.98399675 -0.6107116 0.47415662 0.32176661 -0.2393493 0.3345196 -0.48949578
-0.18721433 -0.8501238 1.0357805 3.4213152 -1.5152006 0.3645541 -0.03813274 -0.5707998
1.2452581 0.54920036 0.9596242 -0.8803026 0.14154768 -0.8275368 1.3941923 -0.0154911075
0.76637894 -0.61880225 -0.23352122 0.06771815 0.10316221 -2.1833308 0.18503954 1.3545926
0.10007324 -0.13576692 0.49090412 -0.5172231 -0.82602686 1.1606243 -0.74094933 -2.446917
0.76530117 -2.8302488 1.558998 0.31675813 1.1605461 0.9214259 -0.6597515 -0.3730015
2.963236 -0.18879353 0.89456034 -0.21576774 2.488523 0.56501824 0.9695388 0.06872996
-0.7780314 0.19915335 0.98210055 -0.04506565 -1.1700673 0.44222128 -1.7829823 0.45295176
2.1773415 0.30558813 -1.3741331 -0.5417453 -1.0036905 0.093662225 -0.42319468 0.32908908

lstm.weight_hh_l1 f4 [256, 64]
00000000: 79c8 893f 68cf 30bf 5f52 033f daed 2c3f
00000010: 516a 30bf 9083 0240 8930 58bd fd57 8fbf
00000020: 3931 7b3f 9978 793f d15c b5bf e7b9 abbe
00000030: edba ff3e a7d1 1cc0 9c32 3abf 780d 21c0
00000040: 7fc8 c0be 17fc 33be 25b5 9cbf 6534 2bbf
00000050: 73e5 933f 1e07 933f a2e8 573e f5a4 f13d
00000060: 3a9b 41bd d471 e33d 1f55 fe3e 8ae9 75be
00000070: 4a85 cebf 54ea f1be bdd8 23bf 9c88 f53f
00000080: f54c f93e b4e4 8c3e ddd6 3740 beec cabe
00000090: 6ffd 993e 69e1 d1bf 2022 7abe 8ca1 8dbf
000000a0: a0f7 abbf 18b1 3abe bf8f 873d 9cd7 65be
000000b0: f8e3 da3f fa4c 27c0 a61c 633e 8e31 683f
000000c0: 9194 aabf e04c 74bf d43a 64bd 6fd4 2cbf
000000d0: b409 bb3f aa20 ec3e 19a8 33c0 4567 0c40
000000e0: 5fe2 023f b708 eabd 63b0 3bbf 0cd3 963e
000000f0: a29d 383f b423 2040 de4d 5b3f 808a 9b3f
00000100: 54dc d13f 1e5d a0be 622f 633f 390f febd
00000110: 86f5 2bbf 1793 263f 79cc 043f 4e21 69bf
00000120: 9290 463f a465 ffbc ab53 d5be c905 a73e
00000130: 6e25 6fbf 0816 b4bf 574f 31be af50 8d3f
00000140: e722 02bf 0832 75be 253a a0bf a288 99bf
00000150: 8c3a e63e 00a7 f43e c5b8 40bd 791f 40bf
00000160: f706 823f bdb9 bb3f 06f4 31bf 6817 3dbf
00000170: dd29 803f 3a0d 20bf ff1c 53bf 202b d23d
00000180: fec7 183e 8e4b 9cbe b02b 853f 045b 803f
00000190: 2da0 9cbf 0afc 16be 06f3 873f b842 5ebf
000001a0: 007c 92be 93c6 d53e bd81 c13f e929 833f
000001b0: 39e6 32bf 73ed a2bf f066 40bf d745 553f
000001c0: 047a 9a3f bdd7 ac3f 033e a1bf 91ea 163e
000001d0: 0ada 943e 30a3 853f e3f3 1ac0 9abe a9be
000001e0: b789 b0be b093 38be c813 a33f 1ac0 09be
000001f0: e282 46bf 8c36 be3f 0f36 2d3f 6be0 923f
00000200: 4da6 413f 9f3d e4bf 2b55 603f d62c f73e
00000210: c073 a73f 8dd6 fabe 10af 8d3f 1ff1 fabf
00000220: 481c 9bbf c54b 923f 9e2b b0bf ef00 49bf
00000230: 866f 483e 2596 0bc0 cd9b a03d 02dd 7cbf
00000240: 488e 79bf a0dd 17bf b2ca cf3e ef68 ba3f
00000250: ec35 583f fc84 5b3e 3889 1bbf e21b 48bf
00000260: b5ff 6b3f bdf8 143f 6548 afbe fd87 c3bf
00000270: 8861 9d3f 1495 3fbf 3796 eebe 9e86 c6bf
00000280: dbce 4340 3705 613e 6605 343e e2f1 a63f
00000290: ee6a 7ebf 6031 b9bf 6d24 8b3d 9480 ffbd
000002a0: ab1c 5abe ac9b 133f 13b7 1b3f 3130 053f
000002b0: fbdc dfbf 82ee b13d 5ade f9be 58cf fa3e
000002c0: bd4d c83e 4e82 373f ff39 57bf 0fbe c13e
000002d0: d169 6bbe c403 69bf f30a 6dbf 7914 a9bf
000002e0: 8845 083f f52d 84be 6ba4 9fbd ddb7 97bf
000002f0: a6d5 54bf 9e08 ac3f f6ce d6bf 5bea 00bf
00000300: 628d 933f e93c 1e3e caf0 873e 2b11 be3e
00000310: 81da 1440 fb70 1b3e 28fe 4dbf 6a85 073d
00000320: e357 c33f b41a 1c3f c358 8cbf 514f 42bf
00000330: df9a 723f 574a c33e 8d99 85bf 4663 1b3f
00000340: b0b7 173e 12ec 373f 2de9 00c0 6855 f9bd
00000350: c536 32be 8ace 81bf df18 bd3f c5d1 c83e
00000360: 97ac 6abf 5acb dabf 2bf1 f8bd e777 253e
00000370: 4b2f c5bf 1e88 9a3d 88a6 0d40 9978 bc3f
00000380: 8522 4ebd 7838 953f 3a7f 163f 0f0a fcbe
00000390: 7682 d63f fc2b fa3f 341f 89bf dd83 f7be
000003a0: 89fd 7cbe 1ceb cabd cda9 38bf 542d bf3e
000003b0: 128f 29be 5ccd de3e c495 55bf ef4b cabe
000003c0: ad44 e5bc ae9a 1540 8a10 003e f4fc c1bf
000003d0: 167c 313f a9ae a6bf bb81 993f 2121 2ebf
000003e0: 2e3c dcbe 9869 50be 30eb 87bc 602d b1bf
000003f0: 634b 2e3e 85b7 643f 8bb6 3e40 8566 873f
1.0764304 -0.69066477 0.51297563 0.6755043 -0.68912226 2.03928 -0.05278066 -1.1198727
0.9812198 0.9744964 -1.416895 -0.3354027 0.499473 -2.4502962 -0.72733474 -2.516447
-0.37652966 -0.17576633 -1.2242781 -0.6687682 1.1554397 1.1486547 0.21084836 0.11799041
-0.047267176 0.11105695 0.49674317 -0.2401487 -1.6134427 -0.4724909 -0.6400259 1.9182315
0.48691526 0.27518237 2.8724892 -0.39633745 0.30076167 -1.6396915 -0.2442708 -1.1064925
-1.3434944 -0.18231618 0.06619214 -0.2244553 1.710082 -2.6140733 0.22178897 0.90700614
-1.3326589 -0.954298 -0.055720165 -0.6751165 1.4612336 0.4611867 -2.8071349 2.193803
0.51126665 -0.114274435 -0.7331602 0.2945789 0.7211553 2.5021791 0.8566569 1.2151642
1.6395364 -0.31321043 0.88744175 -0.12405247 -0.67171514 0.6506819 0.518745 -0.91066444
0.77564347 -0.031176396 -0.41665396 0.326216 -0.9341649 -1.4069223 -0.17315422 1.1040248
-0.50834507 -0.23944867 -1.2517744 -1.1994822 0.44966543 0.4778366 -0.04705121 -0.75048023
1.0158376 1.4666058 -0.69512975 -0.7386384 1.0012776 -0.6252018 -0.8246612 0.10262132
0.14920041 -0.30526394 1.0403957 1.0027776 -1.2236382 -0.14744583 1.062104 -0.86820555
-0.2861023 0.41753063 1.5117718 1.0247165 -0.6988254 -1.2728714 -0.7515707 0.8330969
1.2068486 1.3503338 -1.259705 0.14737917 0.290726 1.0440426 -2.4211357 -0.3315323
-0.34480068 -0.18025088 1.2740412 -0.13452187 -0.7754346 1.4860396 0.6766061 1.1474737
0.7564438 -1.7831305 0.87629956 0.48276395 1.3082199 -0.48991814 1.106905 -1.9604834
-1.2118006 1.1429373 -1.3763311 -0.7851705 0.19573793 -2.181039 0.07842217 -0.9877473
-0.9748273 -0.5932255 0.40584332 1.4563273 0.8445728 0.21437448 -0.60756254 -0.78167546
0.9218705 0.58192044 -0.3423492 -1.5275875 1.2295389 -0.7483685 -0.4659898 -1.5509832
3.0595005 0.21974646 0.17580184 1.3042567 -0.9938191 -1.4468193 0.06794057 -0.12475696
-0.21299998 0.5765941 0.60826224 0.5202666 -1.7489313 0.0868807 -0.48802453 0.48986316
0.3912181 0.71683204 -0.8407287 0.37840316 -0.22989585 -0.9102137 -0.9259483 -1.3209373
0.53231096 -0.25816312 -0.07795032 -1.1852986 -0.831385 1.344013 -1.678191 -0.503576
1.1527522 0.15452923 0.26550895 0.37122473 2.3258364 0.15179817 -0.80465937 0.033086218
1.5261196 0.60978246 -1.0964588 -0.7590228 0.94767565 0.38142654 -1.0437485 0.60698354
0.14816165 0.7184459 -2.014232 -0.12174493 -0.17403705 -1.0141156 1.4773215 0.3922254
-0.916696 -1.7093308 -0.12155374 0.1615902 -1.5405058 0.075454935 2.2132893 1.4724303
-0.05032589 1.1657858 0.5878788 -0.49226424 1.6758564 1.9544673 -1.0712647 -0.4834279
-0.24706091 -0.09908125 -0.72134095 0.3733927 -0.16558483 0.43516052 -0.8343165 -0.39511058
-0.027986849 2.337566 0.12506309 -1.515532 0.69329965 -1.3022052 1.1992716 -0.680193
-0.43014663 -0.20352781 -0.016591638 -1.3841972 0.17020945 0.8934253 2.9798915 1.0578161

lstm.bias_ih_l1 f4 [256]
00000000: c92c dcbe 99c6 2abf ef18 17bf c4d4 28bf
00000010: 23c1 cdbe 89af aebe fc20 b9be 48b7 34bf
00000020: 3f10 5fbf 3e2f 02bf 7604 39bf 9aac 93be
00000030: 075c 50bf db0f 4fbf 90bd 17bf fe95 31bf
00000040: 5b7c 5dbf a2ab 1bbf 2690 3bbf e71f 0bbf
00000050: 6d7c 4abf c33b 36bf bdbd 09bf b8e5 26bf
00000060: 9ae2 11bf cb9b 16bf e4fb ccbe 6aa0 24bf
00000070: 8377 62bf 7f32 16be 5592 20bf a295 b3be
00000080: d00a 78bf 1a40 0dbf 6c57 02bf a952 52bf
00000090: 7376 2fbf 5915 5fbe e55a 83bf b79f 40bf
000000a0: 2fd5 1dbf c5f3 da3c 9753 e5be 7beb 5f3d
000000b0: fb09 50bf d401 38be aba8 06bf 6857 94be
000000c0: 1d3d a6bc 4d17 66bf fdbe aabe abe1 8dbe
000000d0: 1d3d 45bf 1eb8 17bf e942 41bf 0ccd c3be
000000e0: db69 02bf 4408 9dbe f0ed 1fbf baa7 7dbf
000000f0: 0003 dbbe 9039 12bf 190f 0fbf 43c5 2abe
00000100: 877f 33bf 063e 143d fbb8 9a3e 3cc7 e63d
00000110: 8fcf 15bf eecc 37be 44f3 f9bd e780 79be
00000120: 0d7a 02be 2e68 74be 1e99 173f 95db c0bc
00000130: c905 2d3e 3122 823e f2c2 d43e e27a 8abe
00000140: 9804 4dbe d88f f5bb ceac 333e c1ff 35be
00000150: ccd1 52bf b878 88bd 2ff0 9e3e f92c 0c3e
00000160: 85d2 173e 80a7 29be 0855 c23e 2e84 cf3e
00000170: 2c54 98bd dab2 473d d16d 353e 1224 bcbe
00000180: 2fa4 9a3e 42e5 cdbe 57bf 093e fc69 86be
00000190: 642d ddbd f01c ac3e 437e 70be f43f 8e3e
000001a0: 641e 49be d66e 4f3e 3d30 20bc 5ec9 c33d
000001b0: ee3d 40be 5983 34be 732a c7bd 792b 403d
000001c0: 313a 163f 7de4 6d3d 066a 913e 3ee0 cebd
000001d0: 3c42 b1be 1e4a c0bd 37d7 5a3e 058d 9ebd
000001e0: 7c4c 99be f449 393f d8fc e3bd 3494 e7bd
000001f0: 8894 17be 8464 003e 019d 12be 6d2b 8cbe
00000200: f578 413e 0779 62be b20b 833e 1e03 3ebd
00000210: 5e8c fd3d 9f1d 4f3e 9e11 a5be 6691 ef3d
00000220: f73b 70bd 0003 e43e e971 34bd 9ea7 55be
00000230: fef6 e5bc 7a6e 9a3e 532d 053d 242c 033e
00000240: 5bf9 b43d 656c 3b3e 38fb 8fbd 7a15 2e3e
00000250: 2fc2 3dbd 5722 3abd 5d2f 90be 1342 c8bd
00000260: 28b6 a53e d6df 7c3d 6387 773d 4860 5abe
00000270: 9a4b 6bbe b443 623e 4180 9ebc dae5 5a3e
00000280: 99c2 a1bd a75c 913e 41cc 9fbe 9d7f e93d
00000290: 5585 72be e756 90bc 9b33 853d b087 b13e
000002a0: 773a 36be a5f2 11be 66fb 93bc 3d2b 8ebe
000002b0: a04d 373d d391 f13e 49c0 2dbc e886 35be
000002c0: 78fa f5be 02f7 f0bd 0f4e 923d a636 1cbe
000002d0: 38ea f73d 7154 18bd 1f45 d13e d338 41bd
000002e0: 70e0 8a3e d625 b6be 34a4 22be 68c3 483e
000002f0: 7bb8 24be 5d3c 133e c63b 86bb 6280 52be
00000300: 4cff b9bd 4187 c1be d83a 00bf 57d9 00bf
00000310: 1ab1 a2be 966c 22bf 59c0 41be 4774 18bf
00000320: 6d61 37bf 2555 0ebf 9857 2fbf 528c 9ebe
00000330: f9be 2bbf c1bf 08bf 9a30 353b 3872 54bf
00000340: 36fe 30bf a0be efbe 9161 f2be 1825 85be
00000350: d3ac 25bf d57c 00bf 174e 62be 1218 f4be
00000360: d2c8 e9be cc74 f6be b094 5cbe bc20 15bf
00000370: e66d c8be 1d8c 9cbe 8d2a dcbe 3ec6 debe
00000380: f6e6 9cbe 925a f0be 3cb5 98be 5dd9 eebe
00000390: e5d2 15bf 8ddc d7be 5c0d 31bf 833b c5be
000003a0: 8f57 28bf 89c1 c2be b3c6 8fbe bbba 53be
000003b0: 992d cfbe f218 dabe 5239 04bf 13fe 14bf
000003c0: e291 66bf e879 41bf ed96 26bf d290 c3be
000003d0: b704 f4be ccd4 2cbf f56f 03bf fd91 0dbf
000003e0: 193a acbe 2388 7bbc b4c3 05bf a356 28bf
000003f0: e7e9 0ebf a23f 3bbf d887 67bf d507 a0be
-0.43002918 -0.66709286 -0.5902242 -0.65949655 -0.40186414 -0.34118298 -0.36157978 -0.70592165
-0.87134165 -0.50853336 -0.7227243 -0.28842622 -0.8139042 -0.8088357 -0.59273624 -0.69369495
-0.86517876 -0.60808766 -0.7326683 -0.54345554 -0.7909611 -0.7118494 -0.5380514 -0.65194273
-0.5698639 -0.5883147 -0.40035927 -0.6430727 -0.8846361 -0.146677 -0.62723285 -0.35075098
-0.968915 -0.55175936 -0.50914645 -0.8215738 -0.68540114 -0.21785487 -1.0262114 -0.75243706
-0.6165342 0.026727566 -0.44790336 0.05466793 -0.8126523 -0.17969447 -0.52601117 -0.28972936
-0.020292813 -0.89879304 -0.33348837 -0.27711233 -0.77046376 -0.59265316 -0.7549272 -0.38242376
-0.5094277 -0.3067037 -0.6247244 -0.99084055 -0.42775726 -0.57119083 -0.5588241 -0.16676812
-0.70116466 0.036191963 0.30219254 0.1126847 -0.58519834 -0.17949268 -0.12204602 -0.24365579
-0.12741871 -0.23867866 0.59218013 -0.023542205 0.16896738 0.2541671 0.4155498 -0.27046877
-0.20021284 -0.007493954 0.17546389 -0.17773344 -0.82351375 -0.0666365 0.3104262 0.1368903
0.148264 -0.16567802 0.379555 0.40530533 -0.074379295 0.04875455 0.17717673 -0.3674627
0.30203387 -0.40213972 0.13451897 -0.26252735 -0.10799673 0.33615828 -0.23485665 0.27783167
-0.196405 0.20257124 -0.009777126 0.09559892 -0.18773624 -0.1762823 -0.097248934 0.04691646
0.58682543 0.05807923 0.28401202 -0.101013646 -0.34620845 -0.09389137 0.2137116 -0.07741741
-0.29941165 0.7237847 -0.111322105 -0.113075644 -0.14802754 0.12538344 -0.14317705 -0.2737688
0.18893798 -0.22116481 0.2559486 -0.04638969 0.123802885 0.20226143 -0.32240003 0.116976544
-0.058650937 0.4453354 -0.044053946 -0.20864722 -0.028071877 0.30162412 0.032513928 0.12809807
0.08836623 0.18303068 -0.07030338 0.1700038 -0.046327766 -0.045442905 -0.28161135 -0.09778228
0.32365537 0.061736904 0.06043185 -0.21325791 -0.22978058 0.22096139 -0.019348266 0.21376744
-0.07898445 0.28391 -0.3121052 0.114012934 -0.23683675 -0.017619563 0.065039836 0.34673834
-0.1779574 -0.14252718 -0.018064212 -0.27767363 0.044751763 0.47181568 -0.010604926 -0.17727244
-0.48042655 -0.11765863 0.07143795 -0.15255222 0.121052206 -0.037189905 0.40873048 -0.047173332
0.27124357 -0.35575742 -0.15882951 0.19605792 -0.16085999 0.14378496 -0.004096481 -0.20556787
-0.09081897 -0.37798503 -0.5008979 -0.50331634 -0.31775743 -0.6344694 -0.18921031 -0.59552425
-0.71633035 -0.5559867 -0.6849303 -0.3096643 -0.67088276 -0.53417593 0.0027647377 -0.82986784
-0.69137895 -0.46825123 -0.47340062 -0.26004863 -0.64716834 -0.5019048 -0.22100101 -0.47674614
-0.45661026 -0.48135984 -0.21541095 -0.58253074 -0.39146346 -0.30575648 -0.43001214 -0.43510622
-0.3064496 -0.469441 -0.2982577 -0.4665021 -0.58524925 -0.42160454 -0.6916101 -0.38521966
-0.65758604 -0.3803828 -0.28081283 -0.20676701 -0.40464476 -0.42597157 -0.51649964 -0.58200186
-0.9006635 -0.7557664 -0.65074044 -0.38196427 -0.47659847 -0.675122 -0.5134271 -0.55300885
-0.33638075 -0.015352282 -0.52251744 -0.657572 -0.55825657 -0.7314397 -0.90441656 -0.31255975

lstm.bias_hh_l1 f4 [256]
00000000: 422e 83be 5370 f5be 3851 03bf 8e1c 08bf
00000010: 7395 0bbf 3638 b3be a953 b7be a70e 09bf
00000020: bfa3 81bf bcc7 11bf 14eb 09bf efb0 3ebe
00000030: 35d3 24bf 3cae 3ebf a4cd 31bf c221 31bf
00000040: 7d3f 50bf cd3e babe d7be 49bf dc99 efbe
00000050: 32b0 32bf e228 4cbf 4bca 2ebf e891 2abf
00000060: 4279 0dbf b9c9 ccbe acf5 bcbe edae 4bbf
00000070: 055c 45bf cc7e 55be d462 47bf 7e6c 01bf
00000080: f755 80bf 5376 d0be 970a 99be 5073 30bf
00000090: 5861 0bbf d507 31be c5e5 85bf 5af2 2bbf
000000a0: bfb2 37bf af17 86bc 14d3 ddbe ece5 253e
000000b0: 1a1d 68bf 8e5c b5be b400 e4be 9904 82be
000000c0: b5d5 fdbc a1af 87bf 83b0 a7be 73a5 e4be
000000d0: a9e2 07bf 4803 28bf 9b79 30bf 9801 bebe
000000e0: ac55 22bf af4c 7cbe 285b f3be ec20 85bf
000000f0: e94a aabe 4f2d 20bf 69a4 e1be 22de 87bd
00000100: 75af 5bbf 3176 1f3e 4770 4c3e 6df1 c03c
00000110: 0e49 d4be f327 89be b95e 1dbe 9bc6 2dbe
00000120: 7bef d3bd 7bc6 c3bd a057 2b3f 85db 0f3e
00000130: 9a3a 4a3d 018e 843e b112 933e 8d44 fcbd
00000140: e916 0bbd 4a77 7c3c 3d80 163e 57c2 48be
00000150: 6466 46bf 2072 e43d 7e7d 6c3e 9416 8c3d
00000160: 6220 ba3d 3072 aebc db0e d13e 3652 c73e
00000170: e5a7 67be e8e0 223e 2e65 b63d 44d8 d3be
00000180: 999e 983e 1e2f c6be be68 a03b 0d33 abbe
00000190: a5ae b13d af71 bf3e 5dfa 0cbe 5592 ee3d
000001a0: 2408 6fbe 14c7 c33d e6aa fe3d 80ce 753d
000001b0: 2384 95be 6cab 5ebe d655 d5bc f4a7 dbbd
000001c0: e7ff f73e 2fdf 1d3e f4e0 8d3e 2a82 b3bd
000001d0: 4e9d 14be 011b d2bd 2d2e bd3e b625 c43d
000001e0: c872 b1be edb7 313f 8d65 483d 9426 33be
000001f0: 37cd 92be 8f1e 743e ae1a 57bc 2193 84be
00000200: 855b 193e b898 72be 4401 273e b56c c9bd
00000210: 7d24 463e d1ec 6b3e 5fab cebe 6c14 7a3d
00000220: c615 c5bd 4636 ee3e 58b0 833c 90ae 04be
00000230: 17ec 28be 26b9 423e f840 183e 02ba 703d
00000240: b5c0 2f3e e5d9 c53c ac0f 11be 482e 6a3e
00000250: b852 14bd 4edc 01be 0dd5 8cbe 08c8 afbd
00000260: 5cf5 083e cf8b 5e3c d2dd fc3d 60f4 9dbd
00000270: 0ac8 97be 0726 a63e 9a14 8e3c 6c2d 453e
00000280: b911 8c3d 767c b73e 28ab 84be df30 f03d
00000290: 97de dabe dca0 953b 411f 473c 14e3 4e3e
000002a0: 5d2e eabd 0d38 ddbd a8ca b7bd 34a1 87be
000002b0: 7f35 e3bd c3fa 7e3e 8fb8 1cbe 9768 25be
000002c0: 3510 04bf a262 8cbe bed0 7f3e 40a8 16be
000002d0: edf5 223e 2c70 19be 45a1 a63e cbbf 073e
000002e0: 437b 2d3e d83d babe e18b 6bbe 85ba 3d3d
000002f0: d51c e9bd 9d6f 69bd b762 7f3d 37b2 5bbe
00000300: 98e8 55bd f964 89be c577 c9be 123f f4be
00000310: c681 bdbe 40c0 13bf 9da4 adbe 25c2 20bf
00000320: 4aba 03bf fbdd 1ebf c338 1fbf 1a67 74be
00000330: cced 18bf 4d6c 09bf c64f 13bd 60a7 46bf
00000340: 31df 4cbf 6603 ccbe 9c08 dfbe c27b a8be
00000350: 1551 3abf 0b10 2dbf 8e32 afbe 5bee ccbe
00000360: b4dc 86be 9cad 2bbf d73f 54be e028 26bf
00000370: a779 c0be f9c3 b5be d1c7 0cbf a466 5fbe
00000380: 62ac b1be 0873 c9be be9f e7be ae14 0cbf
00000390: 0b07 0cbf 17ca 25bf 9aa9 2cbf 9234 80be
000003a0: 7759 15bf fb71 50be 1514 35be b696 8cbe
000003b0: fab4 03bf 68a8 fcbe 8c4b 24bf de52 32bf
000003c0: 72d3 48bf 263e 33bf fa57 16bf 1e0e abbe
000003d0: 2898 15bf 552d 3dbf b86a 2abf f69b 1cbf
000003e0: 8de9 0cbf bce1 34bc 4825 d0be 12ef 0dbf
000003f0: f0c2 1abf 747d 2abf 60c6 64bf 4a36 babe
-0.2562123 -0.4793726 -0.51295805 -0.5316857 -0.54524916 -0.35003823 -0.35806015 -0.5353798
-1.0128096 -0.56945395 -0.53874326 -0.18622182 -0.64384776 -0.7448461 -0.6945441 -0.69192135
-0.81346875 -0.36376038 -0.78806823 -0.46797073 -0.698001 -0.7974988 -0.68277425 -0.66628885
-0.5526315 -0.39997652 -0.36906183 -0.7956379 -0.77093536 -0.2084915 -0.77885175 -0.5055617
-1.0026234 -0.40715274 -0.29890892 -0.6892595 -0.5444541 -0.17288144 -1.0460745 -0.67166674
-0.7175712 -0.016368715 -0.43325102 0.1620099 -0.90669405 -0.35422176 -0.44531786 -0.25394133
-0.030985693 -1.0600473 -0.32751855 -0.44657478 -0.5308023 -0.65630007 -0.68935555 -0.3711059
-0.63411975 -0.24638627 -0.47530484 -1.0400672 -0.33260277 -0.62569135 -0.44070747 -0.06634165
-0.858146 0.1557243 0.19964705 0.02355262 -0.41461986 -0.2678829 -0.15368165 -0.16970293
-0.10348412 -0.095593415 0.6693058 0.14048584 0.049372293 0.2588959 0.28725198 -0.123177625
-0.033957396 0.0154093 0.14697357 -0.19605385 -0.77499986 0.1115458 0.23094746 0.06840244
0.09088208 -0.021294683 0.40831646 0.3892991 -0.2262264 0.15906107 0.08906017 -0.41375935
0.298085 -0.38707823 0.0048952987 -0.33437386 0.08675889 0.3739142 -0.13767381 0.11649004
-0.23342949 0.095594555 0.1243494 0.060011387 -0.29202375 -0.2174508 -0.026041906 -0.10725394
0.48437425 0.15417169 0.27710688 -0.08765061 -0.14513132 -0.10259057 0.36949292 0.09577505
-0.34657884 0.69421273 0.04892497 -0.17495185 -0.28672192 0.23839782 -0.0131289195 -0.258935
0.14976318 -0.2369107 0.16309077 -0.09835187 0.19349857 0.23039557 -0.4036512 0.061054632
-0.096232936 0.46525782 0.016075298 -0.12957215 -0.16496311 0.19015941 0.14868534 0.05877114
0.17163356 0.024151752 -0.14166135 0.22869217 -0.0362117 -0.12681696 -0.27506295 -0.08583075
0.13374847 0.013583138 0.12346996 -0.077126265 -0.29644805 0.32450888 0.017343808 0.19255608
0.06839318 0.35837144 -0.25911832 0.117280714 -0.42747948 0.004566295 0.012153448 0.20203811
-0.11434624 -0.108017065 -0.089742005 -0.26490176 -0.11094188 0.24900346 -0.15304779 -0.16153179
-0.5158723 -0.27419 0.24981973 -0.1471262 0.15914126 -0.14984196 0.32544914 0.13256757
0.16941552 -0.36375308 -0.23002578 0.046320457 -0.113824524 -0.05699121 0.06235 -0.21454702
-0.05222377 -0.2683485 -0.3934919 -0.4770437 -0.37013072 -0.57715225 -0.33914652 -0.6279624
-0.5145613 -0.62057465 -0.62195987 -0.23867455 -0.5973785 -0.5368088 -0.03596475 -0.77599144
-0.80028063 -0.39846343 -0.43561256 -0.3290692 -0.7277997 -0.67602605 -0.34218258 -0.400256
-0.26340258 -0.6706178 -0.20727478 -0.6490612 -0.37592813 -0.35501078 -0.54992396 -0.21816498
-0.3470183 -0.39345574 -0.4523906 -0.54719055 -0.54698247 -0.6476149 -0.6744629 -0.25040108
-0.5833964 -0.2035598 -0.17683442 -0.27458733 -0.51448023 -0.49347234 -0.64177775 -0.69657695
-0.7844764 -0.70016706 -0.5872799 -0.33409208 -0.58435297 -0.73897296 -0.6656909 -0.6117548
-0.5504387 -0.011040147 -0.40653443 -0.5544292 -0.604537 -0.66597676 -0.89365196 -0.36369544
