td3_actor.pth (torch, 349922 bytes, 5 tensors)

net.0.weight f4 [256, 80]
0	0x3a618f20	0.0008604396
1	0xbe9be3fd	-0.3044738
2	0x3e4285fc	0.18996423
3	0x3d96709f	0.073456995
4	0x3c973d6a	0.018461902
5	0xbea85b67	-0.32882234
6	0x3d6b95fb	0.05751608
7	0xbd333189	-0.043748412
8	0x3be8b9fd	0.0071022497
9	0xbe7ec737	-0.24880682
10	0xbdaadcdf	-0.08342909
11	0xbd1c896b	-0.03821699
12	0xbca1df3e	-0.01975977
13	0xbe5d3ff7	-0.21606432
14	0xbd969f2a	-0.07354577
15	0x3d33e796	0.04392203
16	0xbd56e5c7	-0.052465227
17	0xbdc6f34d	-0.09714375
18	0xbddfd955	-0.10930125
19	0xbc121016	-0.008914968
20	0xbd9f3a2b	-0.077747665
21	0x3cec7fd0	0.02886954
22	0xbc115d44	-0.008872334
23	0x3c7e9aeb	0.015539865
24	0xbdcefcdc	-0.10106823
25	0xbd2da35f	-0.04239213
26	0xbe2517b6	-0.16122326
27	0xbca60a63	-0.020268625
28	0xbd71114f	-0.058854397
29	0xbd6a2932	-0.057168193
30	0xbd205f24	-0.039153233
31	0xbd8aa969	-0.06770594
32	0xbd9057b9	-0.07047982
33	0xbddbddc3	-0.10735657
34	0xbe3ecbc4	-0.18632418
35	0xbc1d7b78	-0.009611957
36	0xba748c1b	-0.00093287387
37	0x3e0762d9	0.13221301
38	0xbcefb24e	-0.029259827
39	0x3d5536ee	0.05205434
40	0x3c53fc2f	0.012938543
41	0x3e05041b	0.12989847
42	0x3cb6ed15	0.022329846
43	0x3dbf00a7	0.09326296
44	0x3c1d6eca	0.009608934
45	0x3d9531de	0.07284902
46	0x3da22b41	0.07918406
47	0x3ddb3431	0.10703314
48	0xbba42de9	-0.0050103557
49	0x3e723651	0.23653533
50	0x3cefda81	0.029278995
51	0x3d869ec0	0.06573248
52	0xbd3038cb	-0.043022912
53	0x3dc8130a	0.097692564
54	0x3e8bbc43	0.2729207
55	0x3d4f6d4b	0.05064134
56	0xbd8fb21f	-0.07016396
57	0x3e43f999	0.19138183
58	0x3eca4303	0.3950425
59	0x3bb49a0c	0.005511528
60	0xbc891296	-0.016732495
61	0x3e694139	0.22778787
62	0x3ef2775d	0.47356692
63	0x3d03b0ea	0.03215114
64	0x3cf4ed4b	0.029898306
65	0x3e44b269	0.19208683
66	0x3ebadf81	0.36498645
67	0xbd44e455	-0.048069317
68	0x3d7e05cc	0.062017247
69	0x3e041c16	0.12901339
70	0x3d9f5b36	0.07781069
71	0x3c07ca1c	0.008287933
72	0x3da83f47	0.08215194
73	0xbdb8f68e	-0.090314016
74	0xbeb5d462	-0.35513598
75	0x3bf64185	0.0075151348
76	0x3e3c4e60	0.18389273
77	0xbe71beeb	-0.23607986
78	0xbfa2a133	-1.2705444
79	0x3c2db149	0.01060135
80	0xbe9ec4ca	-0.31009513
81	0x3da8706c	0.08224568
82	0xbc82a97a	-0.015949953
83	0xbe166114	-0.1468547
84	0xbe1f65a9	-0.15566124
85	0x3d428232	0.047487445
86	0xbe4715b3	-0.19441871
87	0xbe4f4a97	-0.20243298
88	0xbdc347a6	-0.0953515
89	0x3d91485a	0.07093878
90	0xbd70909f	-0.05873167
91	0xbe44dfa1	-0.19225933
92	0xbe189d36	-0.14903721
93	0x3dd1ee62	0.10250546
94	0x3c274a9a	0.0102106575
95	0xbe0c4efb	-0.13702004
96	0xbdd1ebc7	-0.10250049
97	0xbe01945a	-0.12654248
98	0xbcd998ba	-0.026562084
99	0xbe542035	-0.20715411
100	0xbe1e1da3	-0.15440993
101	0xbc22280a	-0.009897241
102	0xbe1d67d6	-0.15371642
103	0xbe072c6e	-0.13200542
104	0xbe21f216	-0.15815005
105	0xbd9a4c2f	-0.07534062
106	0xbdb8738c	-0.09006414
107	0xbd894574	-0.067027
108	0xbdb65ad3	-0.08904042
109	0xbe2bf160	-0.16791296
110	0xbd79e125	-0.06100573
111	0xbcb2d029	-0.021827774
112	0xbe0d97cf	-0.13827442
113	0xbe461c45	-0.19346721
114	0x3dbdda7e	0.0927019
115	0x3cf7c84b	0.030246874
116	0xbd80ec6e	-0.062950954
117	0xbe5328f5	-0.20621093
118	0x3e4876d1	0.19576575
119	0x3e2d4877	0.16922174
120	0xbbbb85e3	-0.0057227476
121	0xbea16d45	-0.3152868
122	0x3da821fc	0.08209607
123	0x3e8257b5	0.2545754
124	0x3bbdb691	0.005789586
125	0xbe81378a	-0.25237685
126	0x3e5e86cc	0.21731108
127	0x3bf7f702	0.0075672874
128	0xbcc3fa44	-0.023923047
129	0xbecef891	-0.40424016
130	0x3e1f8a46	0.15580091
131	0x3d400b1e	0.046885602
132	0xbbb34130	-0.0054704174
133	0xbe9b30c6	-0.3031065
134	0x3e7dee19	0.24797858
135	0x3d22392a	0.039605297
136	0xbd851f8e	-0.06500159
137	0xbea8fb85	-0.33004394
138	0x3e3fcc56	0.18730292
139	0x3dbb4493	0.09143939
140	0x3c961a09	0.018322961
141	0xbe24c232	-0.16089705
142	0x3ec23c6e	0.3793673
143	0xbd084ec6	-0.03327825
144	0xbd32deec	-0.043669626
145	0xbec9a43a	-0.39383107
146	0x3ece7f2c	0.403314
147	0x3d11474b	0.03546838
148	0xbe0e3b6d	-0.13889857
149	0xbeaf6967	-0.34260103
150	0x3e5c0878	0.21487606
151	0xbdaf8c15	-0.085716404
152	0x3db1dbfc	0.08684537
153	0xbe9d6446	-0.30740565
154	0x3e4197c3	0.18905549
155	0xbe59b302	-0.21259692
156	0x3edf0456	0.43557996
157	0xbede7bde	-0.43453878
158	0x3e7f3984	0.24924284
159	0xbeab8dc9	-0.3350661
160	0xbc246c04	-0.010035519
161	0x3eea11a2	0.45716578
162	0x3e7c7564	0.24654156
163	0xbd4c8c99	-0.049938772
164	0xbd8965b6	-0.06708853
165	0x3e9ad403	0.30239877
166	0x3e872b9b	0.26400456
167	0xbdc14e51	-0.09438766
168	0xbc9ebac5	-0.019376168
169	0x3eac93fa	0.33706647
170	0x3dfc263b	0.123119794
171	0xbcf00498	-0.029299065
172	0x3d36e469	0.044651423
173	0x3edf6a26	0.43635672
174	0x3c429707	0.011876828
175	0xbbbca78b	-0.0057572774
176	0xbc46a134	-0.012123395
177	0x3edf3ea2	0.43602473
178	0x3dad097f	0.08449077
179	0xbd8d8702	-0.06910516
180	0xbd2549bb	-0.040353518
181	0x3e9a7d89	0.301739
182	0xbb636eb3	-0.0034703433
183	0xbdb02567	-0.08600884
184	0xbc8995c4	-0.016795047
185	0x3e955633	0.29167327
186	0xbd5fd1be	-0.054643385
187	0x3d5fa13b	0.05459712
188	0xbd8d42ca	-0.06897505
189	0x3e8d56ec	0.2760538
190	0xbe36c725	-0.17849405
191	0x3d95ef48	0.0732103
192	0xbdb21e12	-0.08697142
193	0x3e0efeae	0.1396434
194	0xbe34649f	-0.17616509
195	0x3ccf3a1a	0.02529626
196	0xbe158725	-0.14602335
197	0x3d5f1b31	0.05446929
198	0xbd81e125	-0.06341771
199	0xbc5cf124	-0.013485227
200	0xbe357e9e	-0.17724082
201	0x3e1d4a96	0.15360484
202	0xbe1d9d0a	-0.15391937
203	0x3c90ac96	0.01766042
204	0xbe108118	-0.14111745
205	0xbdfbd81c	-0.12297079
206	0xbe5354dd	-0.20637842
207	0x3d419c4a	0.04726819
208	0xbd680242	-0.05664278
209	0xbc3b7bf2	-0.011443125
210	0xbe752881	-0.23941232
211	0xbb8841ff	-0.004158258
212	0x3c83eebb	0.016105046
213	0xbe0f3c75	-0.13987906
214	0xbe3aba8b	-0.18235223
215	0x3d9e19b7	0.077197485
216	0xbd31709e	-0.04332029
217	0xbe9f31a1	-0.3109255
218	0xbebbe077	-0.3669469
219	0x3e1cb5ea	0.1530377
220	0xbd1bda6f	-0.03805011
221	0xbf01c2ff	-0.50688165
222	0xbe2a0284	-0.16602522
223	0x3dde3321	0.10849596
224	0xbdd5cd20	-0.10439515
225	0xbefe84b6	-0.49710625
226	0xbe437809	-0.19088759
227	0x3df3ee42	0.119106784
228	0xbc0400e1	-0.00805685
229	0xbf11b3a0	-0.5691471
230	0xbe36dd12	-0.17857769
231	0x3d1fef76	0.039046727
232	0x3cdee3ce	0.027208235
233	0xbf2b7dcd	-0.6698883
234	0xbebcec2b	-0.36898932
235	0x3d9cd47e	0.07657717
236	0x3d9efc5f	0.0776298
237	0xbf52f41e	-0.82403743
238	0xbef245c3	-0.4731885
239	0x3dd54c41	0.10414935
240	0x3df86890	0.12129319
241	0xbe0da0ea	-0.13830915
242	0x3e64dc46	0.22349653
243	0x3da5a4af	0.080880515
244	0x3d1cfc90	0.0383268
245	0xbe8ed3c6	-0.27895945
246	0x3e5681fe	0.20948026
247	0xbc3e936b	-0.011631827
248	0x3e3efa65	0.18650205
249	0xbe60cb53	-0.21952562
250	0x3e590813	0.21194486
251	0x3da92bc3	0.082603
252	0x3e23fcb4	0.16014367
253	0xbe43029b	-0.19043963
254	0x3da6da71	0.08147133
255	0x3dae29d6	0.08504073

net.0.bias f4 [256]
0	0x3e9c399a	0.30512697
1	0x3e9d6c59	0.30746725
2	0x3ebf9152	0.37415558
3	0xbe7ec6a2	-0.2488046
4	0xbf1ff014	-0.62475705
5	0xbbcaffb0	-0.006195031
6	0xbc8d4b57	-0.017247839
7	0x3c2a671e	0.010400562
8	0xbe21781e	-0.15768477
9	0x3f5c0dec	0.85958743
10	0xbd4c2a43	-0.04984499
11	0x3ec1db66	0.378627
12	0x3daf3b1b	0.08556195
13	0x3e00e166	0.12585983
14	0x3da5d43a	0.0809712
15	0x3e1098f0	0.14120841
16	0x3ee936da	0.4554966
17	0xbec3c23b	-0.38234124
18	0x3e23f9c0	0.16013241
19	0xbe0f6327	-0.14002667
20	0xbefa5b81	-0.48897937
21	0xbdc3b5c4	-0.095561534
22	0xbde714f6	-0.11283295
23	0x3dedbd5d	0.11608384
24	0xbc690723	-0.014222893
25	0xbf97f2f1	-1.1871015
26	0x3ee3e1eb	0.445083
27	0xbeb83f36	-0.35985726
28	0xbd1e800d	-0.038696337
29	0xbea7a0df	-0.32739922
30	0x3e707e3f	0.23485659
31	0xbe2fa378	-0.17152202
32	0xbe074119	-0.13208427
33	0x3d344324	0.044009343
34	0x3eaaa47f	0.33328626
35	0xbebe55b7	-0.3717477
36	0xbe72fcbd	-0.23729225
37	0xbb31ab2d	-0.0027110085
38	0xbe692849	-0.22769274
39	0x3e992363	0.2990981
40	0xbe035032	-0.12823561
41	0xbe39e721	-0.18154575
42	0xbc864b7b	-0.016393414
43	0x3edeb7af	0.43499514
44	0xbce61214	-0.028084792
45	0xbf1b521c	-0.60672164
46	0xbcd7c9b3	-0.026341295
47	0x3ecd8359	0.40139273
48	0x3f0e6cea	0.5563494
49	0x3eefd356	0.46840924
50	0x3ee233a5	0.44180027
51	0x3eb3dc5e	0.35129064
52	0xbe9bfcf4	-0.30466425
53	0x3ef4d4bf	0.47818562
54	0xbf3692df	-0.7131786
55	0xbde522f8	-0.111883104
56	0xbdc41581	-0.09574414
57	0xbe20fc90	-0.15721345
58	0x3f05de5b	0.5229241
59	0xbdbfcb85	-0.0936499
60	0xbee2ced4	-0.44298422
61	0x3ed42b6d	0.4143938
62	0xbddc706f	-0.107636325
63	0xbeed193c	-0.46308315
64	0xbe983fd6	-0.29736203
65	0xbe8aa1bf	-0.27076527
66	0x3df3eab5	0.11910001
67	0x3e4a0f2f	0.19732355
68	0x3e9e7023	0.3094493
69	0x3d9a3fb5	0.075316824
70	0x3e1de12e	0.1541793
71	0xbed526db	-0.41631207
72	0x3e25397e	0.16135213
73	0x3f2eee94	0.6833279
74	0xbebf39f1	-0.37348893
75	0x3ec4c442	0.38430983
76	0x3eeed1c0	0.46644402
77	0xbe91be80	-0.28465652
78	0xbd3bd8df	-0.04586112
79	0xbef5cf14	-0.4800955
80	0xbe10ca02	-0.1413956
81	0x3eba1bbc	0.36349285
82	0x3d2cf847	0.042228963
83	0xbf60260f	-0.8755807
84	0xbcc4e92d	-0.024036968
85	0xbf1cad9d	-0.6120241
86	0x3eea82f6	0.4580304
87	0x3e087755	0.13326772
88	0x3e918edc	0.28429306
89	0x3c9fcf35	0.019507984
90	0x3e963cdc	0.29343307
91	0xbe7af443	-0.24507241
92	0xbdb48eb3	-0.0881628
93	0x3ec0dee9	0.37670067
94	0x3f488d33	0.7834045
95	0x3ea36a60	0.31917095
96	0xbe252164	-0.16126019
97	0x3f0892d8	0.53349066
98	0x3e016cf5	0.1263922
99	0xbdf552e1	-0.119786985
100	0xbdca4826	-0.098770425
101	0x3f4183a4	0.7559149
102	0xbf305df7	-0.6889338
103	0x3e6ac8c2	0.22928146
104	0x3bdf614d	0.006817019
105	0x3e1d0623	0.15334372
106	0xbea43b89	-0.32076672
107	0xbd6197e9	-0.055076513
108	0xbf1e1251	-0.617467
109	0xbf6c4926	-0.92299116
110	0x3e46a9a7	0.19400655
111	0xbeb6dd97	-0.35715935
112	0xbf2c8112	-0.67384446
113	0x3ec05bc3	0.3757001
114	0x3f716a75	0.94303066
115	0xbce505cc	-0.027956866
116	0x3d5b6cc5	0.053570528
117	0x3dc84059	0.09777898
118	0x3e7fb4bc	0.24971288
119	0xbde91c5b	-0.113823615
120	0xbe393e6d	-0.1809022
121	0xbd50423d	-0.05084442
122	0x3e49c979	0.19705762
123	0xbcfe8938	-0.03107129
124	0x3e8ebe4d	0.27879563
125	0x3d5a1f90	0.053252757
126	0xbeb4968e	-0.35271114
127	0x3f08f803	0.53503436
128	0xbdba77b1	-0.091048606
129	0xbe2a9abb	-0.16660587
130	0xbd0b4ca9	-0.034008656
131	0xbc4bbe44	-0.0124355
132	0x3e28d554	0.16487628
133	0x3f64e3a8	0.89409876
134	0x3e2c3a56	0.16819128
135	0xbf134c49	-0.57538277
136	0x3bcefae8	0.0063165314
137	0xbf67d338	-0.9055667
138	0x3e652bbf	0.22379969
139	0xbd03001a	-0.03198252
140	0xbefccd1b	-0.49375233
141	0x3dd9423b	0.106083356
142	0xbeb68bc8	-0.3565352
143	0xbee908aa	-0.45514423
144	0xbca2be0b	-0.01986601
145	0xbddf7fe5	-0.10913066
146	0x3ee37cfa	0.44431287
147	0x3ef4b76d	0.47796193
148	0x3f3672b6	0.71268785
149	0xbe468f88	-0.1939069
150	0xbe0a331c	-0.13496059
151	0xbe2306b8	-0.15920532
152	0xbf235784	-0.63805413
153	0xbe156eab	-0.14592998
154	0x3d1bfa01	0.03808022
155	0x3dae6191	0.08514703
156	0xbdcf48f9	-0.1012134
157	0x3e051b82	0.12998775
158	0x3d73ce6e	0.05952304
159	0x3ec7ab54	0.389979
160	0xbd6ee222	-0.058321126
161	0xbe179879	-0.14804257
162	0x3eca2d02	0.39487463
163	0xbd8ad139	-0.06778187
164	0x3e97bfe3	0.29638585
165	0xbd806631	-0.062694915
166	0x3ec3b843	0.38226518
167	0x3e3dfe62	0.1855407
168	0xbf169d44	-0.5883372
169	0xbf154497	-0.58307785
170	0xbdd37786	-0.10325532
171	0x3e3ee0b1	0.186404
172	0x3f2e83d0	0.6816988
173	0x3f068a16	0.5255445
174	0xbdb34687	-0.087536864
175	0x3ddcc2e4	0.1077936
176	0xbf0c074e	-0.54698646
177	0x3e9ef325	0.3104488
178	0xbdcc6ee1	-0.09982086
179	0x3f30de6b	0.6908938
180	0x3f193658	0.59848547
181	0xbe30c99f	-0.17264412
182	0x3e0bd96f	0.13657163
183	0x3d3b27e5	0.045692343
184	0xbcef454b	-0.029207846
185	0x3f006773	0.5015785
186	0x3ea4781c	0.32122886
187	0xbf1742b9	-0.59086186
188	0xbc978faf	-0.01850113
189	0xbe518584	-0.20461088
190	0xbe777273	-0.24164753
191	0x3f0a1591	0.5393916
192	0x3f2ee768	0.6832185
193	0xbde47e07	-0.1115685
194	0xbd6cfe69	-0.057859812
195	0x3eb0fbed	0.34567204
196	0x3e953513	0.29142055
197	0xbf31dbc6	-0.6947597
198	0x3f2eb731	0.6824828
199	0xbce68d22	-0.02814347
200	0xbf3a0f2a	-0.7267939
201	0xbebcf76c	-0.36907518
202	0x3ebe7753	0.37200412
203	0xbeeb3435	-0.45938268
204	0xbf1a6b84	-0.60320306
205	0x3ea94abe	0.33064836
206	0x3e466718	0.19375265
207	0xbe0008cc	-0.12503356
208	0xbe8914d6	-0.2677371
209	0x3f3b497a	0.7315899
210	0xbe64de8d	-0.22350521
211	0xbf5ca475	-0.8618844
212	0xbe968d2f	-0.2940459
213	0x3dc0502e	0.09390293
214	0xbeb9602a	-0.3620618
215	0xbd81cc10	-0.0633775
216	0xbd452e95	-0.048140127
217	0x3d5bc239	0.053652022
218	0xbe49ed28	-0.19719374
219	0xbea30f27	-0.31847498
220	0xbd6fa5ff	-0.058507916
221	0xbf7e54df	-0.99348253
222	0x3ee64096	0.4497115
223	0xbdca0cce	-0.098657236
224	0xbcd35852	-0.02579895
225	0xbd1600a8	-0.03662172
226	0x3e62afad	0.22137327
227	0x3d892573	0.06696596
228	0xbf8ba7f6	-1.0910633
229	0xbe7dd6c7	-0.24788962
230	0x3f10696d	0.56410867
231	0x3f0c7fa8	0.5488229
232	0x3f45bc27	0.7724022
233	0xbdbf75d6	-0.09348647
234	0x3d14d71a	0.03633795
235	0x3ea092f8	0.31362128
236	0x3e3a78d8	0.1821016
237	0xbdfcba1f	-0.12340187
238	0x3cb05a55	0.021527449
239	0x3cbf88cc	0.02338066
240	0xbf12e2c3	-0.5737726
241	0x3f6b2639	0.918552
242	0xbd945eac	-0.0724462
243	0x3ddf41ec	0.109012455
244	0x3eb47ebb	0.35252938
245	0xbf257589	-0.6463247
246	0xbf0180be	-0.5058707
247	0xbf2fe0df	-0.687025
248	0xbd19e155	-0.03756841
249	0x3f1aefe4	0.60522294
250	0xbf15843d	-0.58404905
251	0x3d129f5f	0.03579652
252	0xbd5f2043	-0.054474127
253	0x3ef70299	0.4824417
254	0xbef574ea	-0.4794076
255	0xbf233ee9	-0.6376787

net.2.weight f4 [256, 256]
0	0x3da330f2	0.0796832
1	0x3c0d3315	0.008618136
2	0x3f0e6c82	0.5563432
3	0xbf4ba36e	-0.7954625
4	0xbdc16b10	-0.09444249
5	0x3c4eb9d8	0.012617551
6	0x3e8c6eb6	0.27428216
7	0x3e8d50e5	0.2760078
8	0xbe0e5195	-0.13898309
9	0xbc33c9d9	-0.010973417
10	0x3d855612	0.06510557
11	0xbdc6dc97	-0.09710043
12	0x3e81b0ce	0.25330204
13	0x3ea7d7c4	0.32781804
14	0x3d10a080	0.035309315
15	0xbc77d672	-0.015126811
16	0xbe831db3	-0.25608596
17	0xbeb69b14	-0.3566519
18	0xbdf146bb	-0.11781069
19	0x3e021672	0.12703875
20	0xbd9d18c4	-0.07670739
21	0x3eb4bfc6	0.35302562
22	0x3dba4dbf	0.0909686
23	0x3aa5bd29	0.0012644875
24	0xbe3d7c40	-0.18504429
25	0xbdd2591e	-0.10270904
26	0x3d789c6a	0.060696043
27	0xbec24781	-0.37945178
28	0xbe73d237	-0.2381066
29	0x3e0790e1	0.1323886
30	0x3e246e71	0.16057755
31	0xbdf56685	-0.11982445
32	0xbd97c4b4	-0.07410565
33	0xbe379a46	-0.17929944
34	0x3d0be2b8	0.034151763
35	0xbc9b7aec	-0.018979512
36	0x3e3dd89c	0.18539661
37	0xbdad6ea1	-0.084683664
38	0xbe401797	-0.18758999
39	0xbe93222c	-0.2873701
40	0x3ebba685	0.36650482
41	0xbe1dc48a	-0.15407005
42	0x3c4c83b5	0.012482573
43	0xbe037e04	-0.1284104
44	0x3e814688	0.25249124
45	0xbe805381	-0.25063708
46	0x3d16c823	0.03681196
47	0x3dc68974	0.09694186
48	0x3e7c4936	0.24637303
49	0x3dfd9514	0.1238195
50	0xbd268b1d	-0.040660013
51	0x3ecd1796	0.40057057
52	0x3de3d315	0.11124245
53	0xbac5aac6	-0.0015080802
54	0xbe13a4d1	-0.14418341
55	0x3f2a9f06	0.666489
56	0xbe9ff4d8	-0.31241488
57	0xbf440f9a	-0.76586306
58	0x3e949ecc	0.29027402
59	0x3cd790d5	0.026314178
60	0xbd6d81fd	-0.057985295
61	0xbea31497	-0.31851646
62	0xbdb6f787	-0.08933931
63	0x3e6e08e0	0.23245573
64	0x3d42a00e	0.04751592
65	0xbf851ee9	-1.0400058
66	0xbe90caf3	-0.28279838
67	0xbd96396b	-0.0733517
68	0x3edeb59b	0.4349793
69	0x3f1dd64f	0.61655134
70	0xbe6d5754	-0.23177844
71	0x3f046ba9	0.51726776
72	0x3b0055bc	0.0019582352
73	0xbdf8ec51	-0.12154449
74	0x3edf1ac8	0.4357512
75	0xbe33e01b	-0.17565958
76	0x3e8fcfc7	0.2808821
77	0x3e08a0d3	0.133426
78	0xbe1606ac	-0.14650983
79	0xbd057051	-0.032577816
80	0x3e575b03	0.21030812
81	0xbe90195d	-0.2814435
82	0x3eaee59f	0.34159562
83	0xbe6e2ab3	-0.23258476
84	0x3ee1f143	0.4412938
85	0x3ce5d266	0.028054427
86	0x3e806f9c	0.2508515
87	0xbe8a954d	-0.27067032
88	0x3d2a0513	0.041508745
89	0xbf365b9b	-0.7123353
90	0xbb126ee2	-0.0022343923
91	0xbe2dc884	-0.16971022
92	0xbde6c006	-0.11267094
93	0x3e799aa2	0.24375394
94	0x3e74de1c	0.23912853
95	0xbe9de8a0	-0.3084154
96	0xbe4c3ce8	-0.19945109
97	0xbe8e8f6b	-0.27843794
98	0xbe437bfe	-0.19090268
99	0x3eaca3d4	0.3371874
100	0x3e89e032	0.2692886
101	0x3f01072c	0.5040157
102	0xbe849f5f	-0.2590284
103	0xbe83f64c	-0.25773847
104	0xbe5d80e7	-0.21631204
105	0xbd5cc376	-0.053897344
106	0x3d32f242	0.043688066
107	0x3d6bbb2d	0.05755155
108	0x3d1102ca	0.03540305
109	0xbe0d69e7	-0.1380993
110	0xbe2e0165	-0.1699272
111	0xbedfead4	-0.43733847
112	0xbf2dce11	-0.6789256
113	0xbddaea19	-0.10689182
114	0x3ef65c4a	0.48117286
115	0x3e275364	0.16340405
116	0xbf021c9b	-0.508249
117	0xbdc1130b	-0.0942746
118	0x3d0d7432	0.03453464
119	0xbe368539	-0.17824258
120	0x3ea3d6a5	0.31999698
121	0x3d22edb6	0.03977748
122	0xbe8be0bf	-0.27319905
123	0xbeb72bc5	-0.3577558
124	0x3eb2f1cf	0.3495011
125	0xbeca8394	-0.3955351
126	0xbe7b5d5f	-0.24547337
127	0x3d495cef	0.049160894
128	0x3f0e2ece	0.5554017
129	0xbda3b2f2	-0.079931155
130	0x3cc06fcb	0.023490807
131	0xbc5190be	-0.012790857
132	0xbe22b424	-0.1588903
133	0xbdf5413a	-0.119753316
134	0xbe180251	-0.14844634
135	0x3d8d9429	0.06913025
136	0xbd403057	-0.0469211
137	0x3e5b88cf	0.21438907
138	0xbc612e4c	-0.013743948
139	0xbdfefb22	-0.124502435
140	0xbe9681c6	-0.29395884
141	0xbd64aeff	-0.05583095
142	0x3ecaaed5	0.3958651
143	0x3e3478b6	0.17624173
144	0x3dbab272	0.09116067
145	0xbeb9786a	-0.3622468
146	0x3e11838b	0.14210336
147	0x3e650536	0.22365269
148	0x3dd8476a	0.10560496
149	0x3d967f4a	0.07348497
150	0xbf001bf2	-0.5004264
151	0xbdac3e8d	-0.08410368
152	0x3e7a1f4f	0.24426006
153	0xbe9d6096	-0.30737752
154	0xbe7024b2	-0.23451498
155	0xbe9652ee	-0.29360145
156	0x3ef495fb	0.47770676
157	0x3dd1b25d	0.10239098
158	0xbea45c5b	-0.32101712
159	0xbcee2555	-0.029070536
160	0xbdbe1d47	-0.09282928
161	0xbdcb68bf	-0.09932088
162	0x3ca655a4	0.020304509
163	0xbe7ebf9f	-0.24877785
164	0x3eb0d5ef	0.34538218
165	0xbd9edb2c	-0.077566475
166	0x3cb695c7	0.022288216
167	0x3ea0d9d7	0.314162
168	0x3e130fc8	0.14361489
169	0x3ebb64fe	0.36600488
170	0xbe8a3c23	-0.26999006
171	0xbe7ad546	-0.2449542
172	0x3e9519c4	0.2912122
173	0xbc93cdc8	-0.01804246
174	0xbf25a3d4	-0.64703107
175	0x3de2053e	0.11036156
176	0xbe4bb240	-0.19892216
177	0x3d181f2f	0.037139114
178	0x3e575a35	0.21030505
179	0x3e2e76cd	0.17037506
180	0x3dc9d439	0.098549314
181	0x3f307f69	0.6894441
182	0x3ea87a7d	0.3290595
183	0xbe56ee50	-0.20989347
184	0xbd2e3cc4	-0.04253842
185	0xbeb0b0ae	-0.34509796
186	0xbe5a9b69	-0.21348347
187	0x3d60691d	0.054787744
188	0xbdcef843	-0.10105946
189	0x3e83be4d	0.25731125
190	0xbe1db3bc	-0.15400594
191	0xbe5b5aaf	-0.21421312
192	0xbd0cdf0c	-0.0343924
193	0xbee553ba	-0.4479044
194	0x3d23bd02	0.039975174
195	0x3e330578	0.17482555
196	0x3e1821f9	0.1485671
197	0xbeaf99c3	-0.34296998
198	0x3e89581f	0.26825044
199	0xbd40111c	-0.046891317
200	0xbf0520ff	-0.52003473
201	0x3b603758	0.0034212675
202	0x3dcd181d	0.10014365
203	0x3d429f2e	0.047515087
204	0x3c591618	0.0132498965
205	0x3ea22909	0.31671932
206	0xbce08bfd	-0.027410502
207	0x3e1d6ec0	0.15374279
208	0x3e253e4a	0.16137043
209	0x3d86659b	0.065623485
210	0x3f26fd96	0.6523069
211	0xbd998648	-0.07496315
212	0xbe1e378a	-0.15450874
213	0x3e9195ac	0.28434503
214	0x3dadbfe9	0.084838696
215	0x3e2425e4	0.16030079
216	0x3ed81aed	0.42208043
217	0xbd0bd51e	-0.03413879
218	0x3d135460	0.03596914
219	0x3d9c1413	0.07621016
220	0x3e097983	0.1342526
221	0x3e24e89f	0.16104363
222	0x3c8fdb08	0.017560497
223	0x3d95c9b9	0.07313866
224	0xbf07b2a4	-0.5300696
225	0x3e999ae2	0.3000098
226	0x3ec1c80f	0.37847945
227	0xbe9b569e	-0.3033952
228	0xbe3b14cc	-0.18269652
229	0x3dfeac33	0.12435188
230	0x3db70473	0.089363955
231	0x3e0cdd98	0.13756406
232	0x3ed61187	0.41810247
233	0x3d59002e	0.052978687
234	0x3e234958	0.15945947
235	0x3e89632a	0.2683347
236	0x3eb02afc	0.34407794
237	0x3da38632	0.0798458
238	0xbe525ff7	-0.2054442
239	0x3e289350	0.16462445
240	0xbe902e05	-0.2816011
241	0x3d43dd39	0.047818396
242	0x3d1b7ea4	0.03796257
243	0xbf379f26	-0.71727216
244	0xbeb9d4dc	-0.3629521
245	0xbf033b3a	-0.5126225
246	0x3d6b75ea	0.0574855
247	0xbce585a6	-0.02801783
248	0x3d5080a1	0.05090392
249	0x3f262c9f	0.64911836
250	0xbe75cd95	-0.24004205
251	0xbd9a68b9	-0.075395055
252	0x3e951271	0.29115632
253	0xbcbe593f	-0.023235915
254	0x3de6a524	0.11261967
255	0xbe74e7a8	-0.23916495

net.2.bias f4 [256]
0	0xba006e6c	-0.00048992666
1	0xbe16c4d3	-0.1472352
2	0x3dc02835	0.09382669
3	0x3d609863	0.054832827
4	0x3d23f5e2	0.040029414
5	0x3e0de5f2	0.13857248
6	0xbea716cf	-0.3263459
7	0x3dd45e57	0.103695564
8	0x3d6b36c8	0.05742529
9	0xbe0713cd	-0.13191147
10	0xbd890833	-0.06691017
11	0x3e390583	0.18068509
12	0x3d8d724a	0.069065645
13	0x3d0dfad6	0.034663044
14	0xbdd71cf6	-0.10503571
15	0xbe9295cc	-0.2862991
16	0x3dd4e13b	0.10394522
17	0x3db6da7f	0.089283936
18	0x3d573700	0.052542686
19	0x3d99ffc4	0.075194865
20	0xbe4b4a34	-0.19852525
21	0xbd353f4f	-0.04424983
22	0xbd76d8d9	-0.060265396
23	0x3c7f5012	0.015583055
24	0xbd0cc4b5	-0.034367282
25	0x3e1b37e1	0.15158035
26	0xbc8b836f	-0.017030446
27	0xbddb32a7	-0.107030205
28	0xbdc14757	-0.09437435
29	0xbda4a2df	-0.08038878
30	0xbeb50af7	-0.35359928
31	0xbd0dfe8d	-0.034666587
32	0xbc92a8c8	-0.017902747
33	0x3da8113d	0.08206413
34	0xbe3b6169	-0.18298878
35	0xbea4fc28	-0.3222363
36	0xbc49df33	-0.012321281
37	0xbd819010	-0.06326306
38	0xbe6f70f2	-0.23382929
39	0xbdfff48f	-0.12497818
40	0xbc4be730	-0.012445256
41	0x3dd0755e	0.10178636
42	0xbe938289	-0.28810528
43	0x3d863ef3	0.06554975
44	0xbce9d2fe	-0.028542992
45	0xbe617ea7	-0.2202097
46	0xbd99b4f1	-0.07505215
47	0xbe7c7642	-0.24654487
48	0xbd609984	-0.054833904
49	0xbebb78a6	-0.36615485
50	0xbe18db05	-0.149273
51	0xbd7d0693	-0.061773848
52	0xbbc91da6	-0.0061375676
53	0x3ddc6b03	0.10762598
54	0xbebd34f8	-0.36954474
55	0xbe49854b	-0.19679753
56	0x3d8b7f23	0.06811359
57	0x3d9a9247	0.075474314
58	0xbd629cbe	-0.055325262
59	0xbdd3e255	-0.10345904
60	0xbeb86a51	-0.36018613
61	0xbe6bdee4	-0.23034245
62	0xbe766eb2	-0.24065664
63	0xbcf17159	-0.029472994
64	0x3d94927c	0.07254502
65	0xbe69364d	-0.2277462
66	0x3d4b9ece	0.049711995
67	0x3d582661	0.052770976
68	0xbbbcb661	-0.005759046
69	0x3d44b747	0.04802635
70	0xbca7e2c6	-0.020493876
71	0x3da2c79f	0.07948231
72	0x3df53537	0.119730406
73	0xbe713c8d	-0.23558255
74	0x3b0eb1d2	0.002177347
75	0xbe2eb904	-0.17062765
76	0xbe145753	-0.14486437
77	0x3d7b4306	0.061343215
78	0x3d02fad6	0.031977497
79	0x3d9ca043	0.07647755
80	0xbe951f76	-0.29125565
81	0x3e688893	0.22708349
82	0xbdbbaee2	-0.091642156
83	0x3e587a09	0.21140303
84	0x3ca97e6a	0.020690162
85	0xbe3d4698	-0.1848396
86	0x3e70b012	0.23504665
87	0x3ca53c24	0.020170279
88	0x3df67537	0.12034076
89	0xbe02a139	-0.12756814
90	0xbe19204a	-0.14953724
91	0xbe2dee00	-0.16985321
92	0xbe00f1b4	-0.12592202
93	0xbd49f01d	-0.049301255
94	0x3d79eb61	0.06101549
95	0x3e19315b	0.14960234
96	0xbe0ee2c8	-0.13953698
97	0x3e0cb8af	0.13742326
98	0x3dae3d33	0.085077666
99	0xbe075603	-0.13216405
100	0xbe90076c	-0.28130662
101	0xbe31d8b5	-0.17367823
102	0x3deb5284	0.11490348
103	0xbd0f17b9	-0.034934733
104	0x3d98d252	0.074619904
105	0x3dc95f4e	0.09832631
106	0x3dde3e92	0.10851778
107	0x3ea39f25	0.31957355
108	0x3e1e10b9	0.15436067
109	0xbcd87f73	-0.02642796
110	0xbe88636f	-0.26638362
111	0xbdcda3e4	-0.10041025
112	0xbda17ef0	-0.078855395
113	0xbd9bc510	-0.07605946
114	0x3cc0ec3d	0.023550147
115	0x3e0da5cb	0.13832776
116	0x3e15975d	0.14608522
117	0x3dea681e	0.1144564
118	0x3e56ec26	0.20988521
119	0x3e249992	0.16074207
120	0xbefb8fa3	-0.49133024
121	0xbe4f5a5b	-0.20249312
122	0xbe873b5b	-0.26412472
123	0x3d97c739	0.074110456
124	0xbecfcccc	-0.40585935
125	0xbcda26ac	-0.026629768
126	0x3e805b58	0.2506969
127	0xbd3357a9	-0.04378477
128	0xbdc11f1f	-0.09429764
129	0xbe7d85af	-0.24758027
130	0xbe4086cf	-0.18801425
131	0x3dbb2c4e	0.0913931
132	0xbd000d2d	-0.031262565
133	0x3de5edf9	0.1122703
134	0x3dc99bc0	0.0984416
135	0x3dba6a38	0.09102291
136	0xbd33ef7c	-0.043929562
137	0x3bbea60a	0.0058181332
138	0xbb031191	-0.0019999484
139	0xbe1cf660	-0.1532836
140	0xbdbc4a01	-0.091938026
141	0xbd7a914e	-0.06117373
142	0xbdad6349	-0.08466203
143	0xbcf49085	-0.029854069
144	0x3d8bec89	0.06832225
145	0xbe3137fd	-0.17306514
146	0xbc7a2cdc	-0.015269484
147	0x3c5329e0	0.012888402
148	0x3e40ed9e	0.18840644
149	0xbe7ff7d0	-0.24996877
150	0xbd403590	-0.04692608
151	0x3e1d7fe7	0.15380822
152	0xbe44f1bc	-0.1923284
153	0xb9ac7ba8	-0.00032898528
154	0x3d890c6d	0.06691823
155	0x3b6c4dc6	0.0036057099
156	0x3e2347be	0.15945336
157	0xbe1fae2f	-0.1559379
158	0xbc9e67b3	-0.019336557
159	0xbd0dc546	-0.034611963
160	0xbe356b24	-0.17716652
161	0xbe2d850d	-0.16945286
162	0xbf173707	-0.5906834
163	0x3e2fdce5	0.17174108
164	0x3d632ed5	0.055464584
165	0xbe00c3e9	-0.12574734
166	0xbde75dc3	-0.112971805
167	0xbe8294ef	-0.25504252
168	0xbe65e192	-0.2244933
169	0x3c37df3d	0.011222658
170	0xbdb0771a	-0.08616467
171	0x3e1588db	0.14602987
172	0x3d4e27be	0.05033087
173	0xbe575359	-0.21027888
174	0xbe6b79c2	-0.22995666
175	0x3df575bb	0.11985346
176	0xbe6a822e	-0.22901222
177	0x3dae74cf	0.08518373
178	0x3dabd6ef	0.08390605
179	0x3d2662af	0.040621456
180	0x3d631240	0.055437326
181	0xbe8c3ed9	-0.273917
182	0xbcd3f862	-0.025875274
183	0xbdec9d90	-0.1155349
184	0xbe6f7348	-0.2338382
185	0x3daee1e0	0.08539176
186	0x3e52c0bd	0.20581336
187	0x3e0adf9c	0.13561863
188	0x3caea2d6	0.02131788
189	0x3e0027eb	0.12515227
190	0xbe2277f1	-0.15866067
191	0x3df13668	0.11777955
192	0xbecb8f43	-0.39757738
193	0xbd1e9fd0	-0.038726628
194	0xbe4163f7	-0.1888579
195	0x3dc9c86e	0.09852682
196	0x3d14b4b6	0.036305152
197	0x3d8c824c	0.0686079
198	0x3d11e6d1	0.035620514
199	0x3d7b5d91	0.06136853
200	0xbe7eed99	-0.24895324
201	0xbde5b514	-0.112161785
202	0x3c915acb	0.017743489
203	0xbe81f744	-0.2538396
204	0xbe8a29fd	-0.2698516
205	0xbd4b937a	-0.04970119
206	0xbdf08905	-0.117448844
207	0x3e3c2343	0.18372826
208	0xbe920271	-0.28517488
209	0x3cf05481	0.02933717
210	0x3d2d0296	0.042238794
211	0xb9ca115c	-0.00038541376
212	0x3dbd2c31	0.092369445
213	0xbdf99d2d	-0.12188182
214	0xbe082078	-0.13293636
215	0xbdd23b67	-0.10265236
216	0xbdb2b3d2	-0.08725704
217	0xbdbabb98	-0.09117812
218	0x3d2a982b	0.041649025
219	0x3e38e5d9	0.1805643
220	0xbe62b1cd	-0.22138138
221	0xbee94b3f	-0.4556522
222	0x3cbd6042	0.023117188
223	0x3e807499	0.25088957
224	0xbdef1035	-0.11673013
225	0x3cdea68a	0.027179021
226	0xbe4a67c5	-0.19766147
227	0x3dcba1a5	0.099429406
228	0xbe703daa	-0.23461023
229	0xbde1f8e6	-0.11033802
230	0xbde96860	-0.11396861
231	0xbe6b651b	-0.22987787
232	0x3d064b48	0.032786638
233	0x3ad25474	0.0016046898
234	0xbed29761	-0.41131118
235	0xbd42385b	-0.047417026
236	0x3dd2e47a	0.10297485
237	0xbd2db007	-0.0424042
238	0xbe3b4e33	-0.1829155
239	0x3e294e54	0.16533786
240	0xbe4a6a36	-0.19767079
241	0xbf19b556	-0.6004232
242	0xbcfa05e4	-0.030520387
243	0xbf01be7d	-0.5068129
244	0xbbdb7713	-0.0066975444
245	0xbe39ea84	-0.18155867
246	0x3cf82d2c	0.030294977
247	0xbd5a90fe	-0.05336093
248	0x3d8fdc7d	0.07024477
249	0x3d75b9d9	0.05999169
250	0x3c9e4f3c	0.019324891
251	0xbdea1608	-0.114299834
252	0x3d931110	0.07180989
253	0x3ca27689	0.019831913
254	0xbd8ae9b4	-0.067828566
255	0x3e62620a	0.22107711

net.4.weight f4 [1, 256]
0	0xbf5d4e6b	-0.8644778
1	0xbf9863e1	-1.1905481
2	0xbf125e2c	-0.57174945
3	0x3fc85588	1.5651102
4	0xbf410126	-0.7539238
5	0xbfd08b3d	-1.6292492
6	0x408f2cfa	4.4742403
7	0x3f3869a7	0.7203621
8	0xbf56d848	-0.8392377
9	0xbf6595d5	-0.8968175
10	0xc010e55d	-2.2639992
11	0x3f316678	0.6929698
12	0x3ef7d7ae	0.48406738
13	0x3eb63d93	0.35593852
14	0xbf7f61d4	-0.9975865
15	0xbf656112	-0.8960124
16	0xbfc155a3	-1.5104259
17	0x3f40d99b	0.7533204
18	0x3fb3d37b	1.4048914
19	0xbf884c92	-1.0648367
20	0xbfd70da6	-1.680104
21	0xbec0dd1b	-0.3766869
22	0xbfe0cc3a	-1.7562325
23	0xbf2deda0	-0.6794071
24	0x3f040e8e	0.5158471
25	0xbfb8792f	-1.4411982
26	0x3f4b9b04	0.7953341
27	0xbf50a6ed	-0.8150471
28	0xbf6de6b6	-0.9293016
29	0x3faf6977	1.370406
30	0xc02d5cd0	-2.7087898
31	0x3f564fad	0.83715326
32	0xbf49cf2a	-0.7883173
33	0xbef00940	-0.46882057
34	0xbf8eb04d	-1.1147553
35	0xbfc58fc6	-1.5434501
36	0xbeddbfd5	-0.4331042
37	0xbfba9e74	-1.4579606
38	0x40130809	2.2973654
39	0x3f167365	0.5876983
40	0xbe9d4e79	-0.30723932
41	0x3ece9342	0.40346724
42	0xbf448aed	-0.76774484
43	0x3fda2cb5	1.7044894
44	0xbf82bc50	-1.0213718
45	0x3f3ad306	0.72978246
46	0x3fc3f7b9	1.5309974
47	0x3f15a2d3	0.58451575
48	0x40043bc7	2.0661485
49	0xc064821d	-3.5704415
50	0xc005a4a6	-2.0881743
51	0xbcb39d39	-0.021925556
52	0xbf936d7b	-1.1517786
53	0xbecf934e	-0.40542072
54	0xbf270bb7	-0.6525225
55	0xbf4f9471	-0.8108588
56	0x3f903824	1.1267133
57	0x3f528178	0.82228804
58	0xbfee02e6	-1.8594635
59	0xc01e58da	-2.474173
60	0x40087efb	2.1327503
61	0x3f468d91	0.77559763
62	0xc01dee8c	-2.4676847
63	0x3f8b9a2d	1.0906426
64	0xbf00762a	-0.50180304
65	0xc03848ed	-2.879451
66	0x3f1047c0	0.5635948
67	0xbeb885dc	-0.36039627
68	0xbff05ccf	-1.8778323
69	0xbf13e400	-0.57769775
70	0x3fa7563b	1.307319
71	0x3ee8d584	0.454754
72	0x3ec42cc3	0.383154
73	0x3f8dde07	1.1083382
74	0x3f605303	0.87626666
75	0xbfccc4b2	-1.5997527
76	0xbfb9440d	-1.4473892
77	0x3f9dd895	1.233172
78	0x3ed8feda	0.42381936
79	0x3f98d6ec	1.1940589
80	0x40572339	3.3615248
81	0xbf915cd3	-1.1356453
82	0xbf176808	-0.59143114
83	0xbf264767	-0.649527
84	0x3f88e816	1.0695827
85	0xbec3b5e2	-0.38224703
86	0xbf149988	-0.5804677
87	0xbfc38c5b	-1.5277208
88	0x3ec519e3	0.38496312
89	0xbf86f704	-1.0544133
90	0xc0165478	-2.3489056
91	0xbf3f51d5	-0.7473424
92	0xbfcf0104	-1.6172185
93	0x3f8d28be	1.1028059
94	0xbeda9595	-0.42692247
95	0xbee1d835	-0.44110265
96	0xbf8ae607	-1.0851449
97	0xbed7b968	-0.4213364
98	0x3f5504c8	0.8321042
99	0x3fad42cf	1.3536013
100	0x4085981e	4.174819
101	0xbfa72503	-1.305817
102	0xbf12e015	-0.5737317
103	0xc063702a	-3.553721
104	0xbf69deae	-0.9135541
105	0xbec28fa7	-0.38000223
106	0xbf87c651	-1.0607396
107	0x3f98a796	1.1926143
108	0xbef34592	-0.47514015
109	0x3f726caf	0.9469709
110	0xbf7b7143	-0.982197
111	0xbfff6bd9	-1.9954787
112	0xbfa6ba36	-1.3025577
113	0xbf039bf5	-0.51409847
114	0xc007ebbc	-2.123763
115	0x3fcc2f8d	1.5952011
116	0xbf822e08	-1.0170298
117	0xbfdb4b12	-1.7132285
118	0xbec20e1b	-0.37901387
119	0xbf341930	-0.70350933
120	0xbfac4b7d	-1.3460537
121	0xbf111849	-0.5667768
122	0x3fef5379	1.8697349
123	0xbfb5f651	-1.4215795
124	0xc0677cd3	-3.6169937
125	0xbf977865	-1.1833616
126	0xbec698d4	-0.38788474
127	0xc04fb67e	-3.2455134
128	0xbf31edef	-0.6950368
129	0x3fba43ea	1.4551976
130	0x3f5eebc5	0.87078506
131	0xbf18efe0	-0.5974102
132	0xbedf20ec	-0.43579805
133	0x3f166437	0.58746666
134	0xbed40977	-0.4141347
135	0xbef677e3	-0.4813834
136	0xbfc0492d	-1.5022331
137	0xbfc7e19e	-1.5615728
138	0x3fe35849	1.7761317
139	0x3f9e8b36	1.2386234
140	0xbf83ed6d	-1.0306832
141	0xbfc51303	-1.5396427
142	0x3f655418	0.8958144
143	0xbf493173	-0.7859108
144	0xbef52cb0	-0.47885656
145	0x3fb2467f	1.3927764
146	0xbeee55d0	-0.46549845
147	0xbff2780b	-1.8942884
148	0xbf64c85f	-0.8936824
149	0xbf828534	-1.01969
150	0xbe9829b5	-0.2971932
151	0xbfe13479	-1.7594138
152	0xbfcd2ea1	-1.6029855
153	0x3fb8516f	1.4399852
154	0x3f73d226	0.95242536
155	0x3d87dc57	0.06633823
156	0xbf626d68	-0.8844819
157	0x3f46d204	0.7766421
158	0x3f21e547	0.63240474
159	0xc0ee20af	-7.4414897
160	0x3f097bde	0.5370463
161	0x3f2c1212	0.67215073
162	0xc09c92d5	-4.892924
163	0x3ef128b8	0.47101378
164	0xbf49dd34	-0.78853154
165	0xbfa17e92	-1.2616751
166	0xbfc5d857	-1.5456647
167	0xc0f2e530	-7.590477
168	0xc057be38	-3.370985
169	0x3e614df6	0.22002396
170	0x3f74748c	0.95490336
171	0x3ef4d5ec	0.4781946
172	0xbf9383e2	-1.1524622
173	0x3fb63925	1.4236189
174	0xc0186d58	-2.3816738
175	0xbf7bcc04	-0.9835818
176	0xc01c6a6d	-2.4439957
177	0x3f93c2e6	1.1543853
178	0xbf6795df	-0.9046306
179	0xbf4b4efc	-0.79417396
180	0xbfbd8336	-1.4805667
181	0xbff5b835	-1.919684
182	0x3ec3ec6e	0.3826632
183	0xbe8dfe12	-0.27732903
184	0xc0203fac	-2.5038862
185	0xbf6b91f0	-0.9201956
186	0x3f08e2c6	0.5347103
187	0xbf824943	-1.0178608
188	0x3edae84e	0.4275536
189	0x3db18ea3	0.08669784
190	0xbf0a8a77	-0.5411753
191	0xbf541d15	-0.82856876
192	0x3f7aa114	0.97902036
193	0xbf06435d	-0.5244654
194	0xc0395d74	-2.896329
195	0x3f9e2709	1.2355663
196	0xbfbbedee	-1.4681985
197	0xbf28ded1	-0.6596499
198	0x3fb1d958	1.3894453
199	0x3f0bda55	0.54630023
200	0xbfaf7c32	-1.3709776
201	0xbfdfa7aa	-1.7473042
202	0x3fe50e4f	1.7894992
203	0x3fe301ab	1.7734884
204	0xbfcecf27	-1.6156968
205	0x3f311ab8	0.69181395
206	0xbfdd60bc	-1.7295146
207	0x3ed7f685	0.42180267
208	0xc03655e1	-2.8489916
209	0xbf57377d	-0.84069043
210	0xbf126c6b	-0.5719668
211	0xbefe2165	-0.49634853
212	0x3f5af025	0.8552268
213	0x40c246b7	6.071132
214	0xbf44ebc6	-0.7692226
215	0xbee11d64	-0.43967736
216	0x3fc0cd72	1.5062697
217	0x3fe95328	1.8228502
218	0xbf34bfbf	-0.7060508
219	0xbec80c49	-0.39071873
220	0xbfbf7951	-1.4958898
221	0x40841ec2	4.1287546
222	0x3f9abc03	1.2088627
223	0x3f8f6c6a	1.120496
224	0x3f823d66	1.0174987
225	0xbf962ad2	-1.1731818
226	0xc02d8ec2	-2.7118382
227	0xbf90fc14	-1.1326928
228	0xc06568e9	-3.5845282
229	0x3f8531bd	1.0405804
230	0xbf27d1b1	-0.6555434
231	0xc050ca3c	-3.2623434
232	0x3f45c74a	0.77257216
233	0xbfa128f7	-1.2590626
234	0x405626c2	3.3461156
235	0xbf266896	-0.65003335
236	0xbf1b5ec2	-0.60691464
237	0x3f4474dd	0.7674082
238	0x40e0231c	7.004286
239	0x3f35e5f4	0.71054006
240	0xbf9517f7	-1.1647938
241	0xc0768abb	-3.8522174
242	0xbf26111d	-0.6486986
243	0xc026a948	-2.604082
244	0xbf2b48f1	-0.66908175
245	0x3fcfc9d9	1.6233474
246	0x3f73ef2c	0.9528682
247	0xbf5af42b	-0.8552882
248	0x3f105b60	0.5638943
249	0xbf892bec	-1.0716529
250	0xbf499b00	-0.78752136
251	0xbfa62469	-1.2979861
252	0xbf603ae9	-0.8758989
253	0xbe18b8ba	-0.14914218
254	0x402f99d2	2.7437634
255	0x3f87bb35	1.0604006
